modelMod/final_model.pth (torch, 328050 bytes, 12 tensors)

conv1.weight f4 [64, 3, 3, 3]
00000000: 5bd1 f73c b3d5 4dbe eb9b 1d3d d57d 043d
00000010: 66e2 ab3d c433 14bd 8208 13be bdc5 cfbd
00000020: d9d9 7bbd a679 7bbd 366f 2d3e d4f8 f5bd
00000030: 25df 373e b3f3 9ebc 31d3 9ebd 8797 413e
00000040: 6f10 4c3e 26b8 153e 510d d2bc dff2 283e
00000050: 0450 0a3d 46ea ecbd 21a9 3a3e f1c7 163d
00000060: b153 f8bd 2942 c4bd 0b9d bd3d 1778 dc3d
00000070: 3894 4b3e 84f8 1abe 8aa5 15be 7139 2b3e
00000080: 925f 56be 511e de3d 7835 afbd 08ed 8e3d
00000090: 2684 33be 636e 153e f19a 3dbe be3c 763e
000000a0: e9db 063d 9673 4dbd 3ea4 af3b 3638 8dbd
000000b0: 64a0 17be 3a32 163e 2bd4 d73d fc29 02be
000000c0: 62f9 603e 8bea 05bd 68db 43be 42b1 c4bc
000000d0: a23f d9bd add7 d93d acc5 f6bc bba2 2a3e
000000e0: 543c 8b3d 3347 26ba fce4 353d 9bce 01bc
000000f0: 4b86 423e fabc 39be c727 7c3d 55c5 86bc
00000100: 8bcf 213e 2526 4cbe 2a70 6abd ee4d 42bc
00000110: 25c7 f13c 5a6f 393e da54 dbbd c99a 173e
00000120: ff29 edbd adaf f1bd e6b1 25be 4f4e c3bd
00000130: 4377 d6bd 914d f83c d528 083e 109c 76bc
00000140: 817a 0bbe 424f d43d 0304 15be fc36 05be
00000150: 4dba 913c 8893 21be b04d a83b afe8 a43d
00000160: 3d43 45be 7f28 5d3d 2a93 f13c 3fb9 50bd
00000170: 3061 d8bd e468 e0bd bdb5 8ebd 6c57 2fbe
00000180: a23b 07bd bf11 27bc 79a1 9fbd a0f5 123e
00000190: bf06 c43d 8ea4 273e a9c8 24bc 7f8c 26bc
000001a0: 2cfb bf3d 0d32 723d cd37 e63d 7b82 df3d
000001b0: 1244 6fbe 359f bcbd 6b98 60bc 01bc f23b
000001c0: b8f1 70be 6e9a 033d d196 f23d 800c c6bd
000001d0: 2441 5e3c 9295 1fbe 5ab1 493d aa4e f53d
000001e0: 0f38 49bd e171 ab3d bfb5 07bd 722a 373d
000001f0: 09e2 95bc f754 0c3e 4088 b13c 49f4 4b3e
00000200: 777c a8bd 0c41 4a3e 0413 353d ff9f 3cbe
00000210: 94ec 173e 66f3 2cbd 3e35 b1bc 3b39 b23d
00000220: 299c 43be 7361 f83d 8d3d 95b8 6027 70be
00000230: e592 12bc 4026 03be 7b4f a03d eaa5 e83c
00000240: e881 233e 8100 c0bd 83a2 3d3e fc2c 02be
00000250: d0ad 89be bafb 2cbe 1c8e 3e3d bab1 d5bd
00000260: 0ba7 3e3c 2eb6 8b3d 39fa e33c 92ce 1abe
00000270: 3436 ecbd 3c47 83be 2ff4 2e3d 9300 3d3e
00000280: 9950 b23c 1452 94bc ee51 133e c6b1 dabc
00000290: 449f 50be 5a94 5b3b f34b 93bc a56f 63bd
000002a0: cac0 dabd 1cad b4bc fb3f c43b b80a ee3d
000002b0: 20a0 243e a103 a3bd 0002 c2bd 1539 c4bd
000002c0: 404a 0cbe a515 88bd cd51 423e 4f52 b9bc
000002d0: a0d1 d73d caae 1d3c 9351 11be 3ef8 29bd
000002e0: ed1f ffbc a193 5ebe 5ec1 403d f7fd 9bbd
000002f0: b4d8 2d3c 5855 123e 5e45 0e3e 0325 17be
00000300: cd8f 3dbd de1c 0e3e 4ac5 263e 6b0c 1d3e
00000310: af44 133e 0d1a 9f3d 10e9 11bd d37e 8c3d
00000320: 1edf 21be 2ff6 4abd 64c8 c53d ccab 423e
00000330: 3911 e43d a7ea 223e 6be9 e8bd c2b3 edbd
00000340: b97f cfbd 50c2 323e befe 03be f26a 3c3e
00000350: 858a f63c 4206 903d 6911 5cbd 8c48 b8bd
00000360: 10dc 8e3c a160 453e f920 47be 275d 9fbd
00000370: 981b a9bd 8a9f 1f3e 2fd4 58bd 9a7d b93c
00000380: a5f9 1e3e 72da d03d d090 a23d 7e0b 1abc
00000390: 7a47 fabd fae0 263e 40e6 d7bd a73b 293e
000003a0: 9f7b e0bd c7fe 123e 9ae7 abbd 5ea9 e13c
000003b0: 6caa 0e3e 6c37 873d 4dcc 3cbe bb41 eebc
000003c0: 00e7 3abe 98bc d2bd 6cd0 2abe 47c3 7abe
000003d0: 2691 963d 9594 053e b293 993d c4b9 18be
000003e0: 4e36 45bd ee6f 3fbe 37ec 10be b943 773c
000003f0: f404 893d 766a 213e 3846 82bd 70dd 303d
0.030251196 -0.20101051 0.038478773 0.032346565 0.083927915 -0.03618218 -0.14358714 -0.101451375
-0.061487053 -0.06139531 0.16936955 -0.12010351 0.17956217 -0.019403314 -0.07755125 0.1890546
0.19928144 0.14621028 -0.025641115 0.16498898 0.033767715 -0.115681216 0.1822858 0.036811773
-0.12125338 -0.095829315 0.09258469 0.10765093 0.1988076 -0.15133864 -0.1461393 0.16721131
-0.20934895 0.10845626 -0.0855512 0.06978804 -0.1753088 0.1459289 -0.18516137 0.24046609
0.032924566 -0.05015906 0.0053601554 -0.06895487 -0.14807278 0.14667597 0.10538515 -0.12711328
0.21970132 -0.03269438 -0.19126666 -0.024010304 -0.1060784 0.1063684 -0.030123554 0.16663639
0.06798616 -0.0006343007 0.04440783 -0.007922794 0.18996541 -0.18138495 0.061561372 -0.016451517
0.15801828 -0.19936426 -0.057235874 -0.0118594 0.029513905 0.18108884 -0.107095435 0.1480514
-0.11580276 -0.118010856 -0.16181144 -0.095364206 -0.10471966 0.030310424 0.13296826 -0.015051857
-0.1362095 0.1036668 -0.14552312 -0.13009256 0.01778903 -0.15778935 0.005136214 0.080521934
-0.1926393 0.0539937 0.029489119 -0.050957914 -0.10565412 -0.10957506 -0.069682576 -0.17123193
-0.033015855 -0.010197102 -0.0779447 0.14351511 0.09571599 0.16371366 -0.010057607 -0.010165333
0.09374079 0.059129763 0.11241112 0.10913559 -0.2336581 -0.09210054 -0.013708214 0.0074076657
-0.23529708 0.032129698 0.11845172 -0.09670353 0.013565335 -0.155844 0.0492414 0.119778946
-0.049125727 0.0837133 -0.03313231 0.044718213 -0.018296259 0.13704287 0.021671414 0.19917406
-0.08226865 0.19751376 0.044207588 -0.18420409 0.14836341 -0.04222431 -0.021631833 0.08702322
-0.19102539 0.12127962 -7.1163384e-05 -0.2345252 -0.008946155 -0.1280756 0.0782766 0.028399426
0.15967524 -0.09375096 0.18519025 -0.12712473 -0.2689042 -0.16892901 0.046522245 -0.10434289
0.011636506 0.068218574 0.027829276 -0.15117863 -0.11533776 -0.25640285 0.04271334 0.1845725
0.021766948 -0.018105544 0.14386722 -0.026696097 -0.20373255 0.0033505172 -0.017980551 -0.055526394
-0.10681303 -0.022055201 0.0059890724 0.11623138 0.16076708 -0.079596765 -0.09473038 -0.095812
-0.13700199 -0.06644753 0.18976517 -0.022622256 0.1053803 0.0096241925 -0.14191274 -0.041496508
-0.031143153 -0.21736003 0.04705941 -0.07616799 0.010610748 0.14290369 0.13893649 -0.14760213
-0.046279717 0.138782 0.16286197 0.15336768 0.1438167 0.07768641 -0.035622656 0.06860127
-0.15807769 -0.049551185 0.09657362 0.19010848 0.111360975 0.15909825 -0.11372646 -0.11606552
-0.10131783 0.17456937 -0.12890145 0.18400171 0.030095348 0.070324436 -0.05372754 -0.08998212
0.017438918 0.19275142 -0.19446172 -0.07781439 -0.08257216 0.15588203 -0.05293673 0.0226429
0.1552492 0.10197915 0.07937777 -0.009402154 -0.12220664 0.16296759 -0.105419636 0.16526662
-0.10961079 0.14355002 -0.08393784 0.02754658 0.13932198 0.06602368 -0.1843731 -0.029084077
-0.18252182 -0.10289878 -0.16681069 -0.24488555 0.073519036 0.13044961 0.07498874 -0.14914614
-0.048147492 -0.18695042 -0.14152609 0.01509183 0.06690398 0.15763268 -0.063610494 0.04317993

conv1.bias f4 [64]
00000000: 5172 ccbd d9ed 3abb 71a8 0f3e d8b4 16be
00000010: cefd fa3b b8fd b0bd 9d5c 28be c589 1ebe
00000020: f8f6 4d3d 2dc9 a2be bca0 52be b7c6 5ebe
00000030: 878a e43d 4131 853d 69a7 4e3d 8657 0ebe
00000040: 8fa6 87be 4539 883d b971 243d 38b7 14ba
00000050: 151e 14be 946d 763d f09a 5bbe 5e32 18be
00000060: a5cb 3d3e f474 a23d 7f65 2bbe a217 373d
00000070: 3cf5 51be b1e6 09be 98bf a43b c0fa 07be
00000080: f3aa 0b3e eb30 4fbe 1277 27be 93bd 57be
00000090: 95ee d4bd 479c 513c 5f83 2c3e 474c c63d
000000a0: bfce 7abe c315 ee3d 539a 6fbe 83b9 20be
000000b0: 69ef 5f3b 9cb2 b7ba cbf4 11be a4f1 f93c
000000c0: 1435 b1bd ba15 35be 8364 27be 9d04 1b3e
000000d0: 6ccc 943c cd10 65bd 384e ad3d 4051 423d
000000e0: 5635 a93d 5216 063d 60e8 d7bd 42fe 183e
000000f0: 18c1 453e c88e 2fbe 3057 cabd 632a 58be
-0.099827416 -0.0028523116 0.14029099 -0.14717424 0.0076596504 -0.08642143 -0.16441579 -0.15482242
0.050284356 -0.3179411 -0.20569128 -0.21755491 0.111592345 0.06503535 0.050452624 -0.13900575
-0.26494262 0.06651548 0.040147517 -0.00056730537 -0.144646 0.060163096 -0.21445823 -0.14862964
0.18534715 0.07932463 -0.16737936 0.044700272 -0.20503706 -0.13466908 0.0050277226 -0.13279247
0.1363943 -0.20233504 -0.16354015 -0.2106841 -0.103970684 0.012793607 0.16846989 0.096825175
-0.2449293 0.116252445 -0.23398714 -0.15695767 0.00341698 -0.0014015022 -0.14253537 0.030510731
-0.08652702 -0.1768407 -0.16346936 0.15138479 0.018163882 -0.055924226 0.08462185 0.047440767
0.08262126 0.03273613 -0.10542369 0.14940742 0.1931194 -0.1714431 -0.09879911 -0.21109919

conv2.weight f4 [64, 64, 3, 3]
00000000: c869 2cbd 2cc8 0fbd 5666 4cbd 7c6f 9c3d
00000010: 94ca 1bbd 9bef 82bd 767f 2b3d 6d6f 1f3c
00000020: 878f 8abc b840 e63c 321e 193c 40d5 8c3c
00000030: 8fdb 4a3d 6062 33bb bfdb cebc 9239 9d3d
00000040: 7987 04bd 58cd 483d c357 213c 3a29 883c
00000050: 3cc7 00bd ad9a b9bc 1765 6a3c 0896 37bb
00000060: b0c1 cdbc a18c 1bbc 6c0a 36bd 8219 b93c
00000070: 8c37 203d 7b8a 44bc 987e ca3c 719b 3f3d
00000080: c412 0e3c 00e5 713d d505 963d 19a6 243d
00000090: 8708 05bd 0d9c debc 0880 a8bd 3794 103d
000000a0: d55a 213c ac77 4dbc d89e 033c 4c58 43bd
000000b0: 4b59 af3c ee3e 993c 3482 e03c f19f 6d3d
000000c0: ae0c b1bc 3024 993d 7c4c aa3d 0f56 afbd
000000d0: bbb4 7fbc b14c a0bc c4e3 c2bc 2d3a 123d
000000e0: 0e9f 9a3b 4726 083d fb3f a8bc e34e f2bc
000000f0: 88a2 3e3c 62b7 b83c 21ed e2bc 4bb3 cc3b
00000100: e06f 8dbc 6d18 4ebd b1d1 713b 4b4b 2dbb
00000110: ffef 563d 8d99 a33d fe21 bdbb 0663 36bc
00000120: b561 dabc 2ea5 c1bb 90ed 3b3d 972d 88bd
00000130: af73 5fbd 8218 4c3a d335 01bd 44e5 3bbd
00000140: b65c dbbc 4809 b9bc 1440 5c3d 1f77 723c
00000150: d6a0 81bd b929 12bd 5785 99bc 04f8 28bd
00000160: 71b8 0fbd 79db 1b3d 7d2c c8bc 85e9 593d
00000170: 2cd8 313c 7114 6bbd 3a96 603c 00c5 1cbd
00000180: af25 d0bc 8439 3637 7f7d 2abd 831d 6dbc
00000190: 65ab 8f3c 347c 793d 6cdc bf3c fa5b 263d
000001a0: 5904 883d 36ce 4b3c d55a b9bc 1541 1c3d
000001b0: 1044 2ebd 5b2a ab3c 2472 75bd 0878 edbc
000001c0: a9f4 3a3c dc4c c8bc 0fd0 163d 2092 62bc
000001d0: 2ca7 013c e084 8dbd de65 73bd 8b16 cd3c
000001e0: 73c0 043d 0e25 b1bc ca84 41bd 4572 3cbc
000001f0: 706c f8bc ae27 6dbd d8f6 8ebb 1f1d ccbc
00000200: f68a 473d 63c6 e8bc 5b9b 3cbc 3149 883b
00000210: c225 62bc 0e68 05bd 6039 6fbc 0bc9 5b3d
00000220: 5290 0d3c ffa8 753d fe2e 633c 02a6 1a3d
00000230: 57ee 8b3d ea83 673c 3312 8cbc 40a2 ce3c
00000240: 6c9d 843d 08d0 3f3d b29e 1c3d 91db 953d
00000250: 7f46 9c3d dad0 893d 8eb4 aabc adbe 883c
00000260: 9a58 6d3d e47a 773d e149 1c3d 8616 2a3d
00000270: cb51 9d3c bd2a 21bd a3e0 d63c 11ae 463b
00000280: 674f 36b9 47fb bc3c c0f2 08bd cbfe 1fbc
00000290: cf46 eb3c a83c 99bc c278 583c 34d1 aabb
000002a0: fe7e 8abc 3dd5 533d d5a2 493d 2023 b53c
000002b0: 0ae5 18bd c690 89bb a4f8 0ebc 1c7b d6bd
000002c0: fef0 a53c ebdf 503d 6bd0 2a3d b229 22bd
000002d0: e8da 243d 3fd9 b53c 2792 ef3a 0941 903d
000002e0: fbf5 c73c 402f d63b 5fb1 74bc 3645 753d
000002f0: 18c7 4d3b 87c8 71bc 3d8b 59bc f98e 383d
00000300: 0e81 54bc 313b 17bb c04a 36bd 6d6a 923b
00000310: e2ab 473d 4aa0 25ba cdd5 063d df80 8d3b
00000320: bc51 903c 25d3 433d 27c7 a03c 34b2 413c
00000330: f67a 183d b003 ca3b c0af 8a3c 99c4 b43c
00000340: d9e5 7fbb e7ad 5abd 0c90 003c b986 353d
00000350: 4409 eb3b f4ec 813d 0810 783d 14fc b43d
00000360: f1c1 4f3d 7ad7 ed3c 1bb4 22bd dc87 d9bc
00000370: 7bb2 533d cab4 7f3d 289e 2a3c 1355 11bd
00000380: 9af4 4fbc d9a4 ba3c 3ffe eabb 0d71 da3c
00000390: 0f9c ddbc ac31 5ebd 07d3 023c 049e 73bd
000003a0: c698 efbd 1233 83bd 85ec 60bd 3138 213d
000003b0: cc4c 9a3d 5a94 33bd 113a 343d dd7e 29bd
000003c0: cce5 a2bc ebb4 02bd 011c 48bc a966 1b3d
000003d0: a76b cb3c 5f3e 9d3c be5b a6bc 9c08 e1bc
000003e0: 44d3 803c 6e9e 633c 6baf cfba a6ad b23c
000003f0: 6fed ebbb bb32 12bd a781 2bbc f130 f23c
-0.04209307 -0.03510301 -0.049902283 0.076384515 -0.03803499 -0.06393357 0.041869603 0.009731156
-0.016914142 0.028107032 0.009345578 0.01719153 0.049525794 -0.0027371868 -0.025251267 0.07676996
-0.03235576 0.049023956 0.009847584 0.01662122 -0.031440005 -0.022656763 0.014306328 -0.002801301
-0.025116771 -0.009493978 -0.044443533 0.02259517 0.039115474 -0.011995907 0.024718568 0.0467791
0.008671466 0.059056282 0.07325331 0.040197466 -0.032478835 -0.02717402 -0.08227545 0.0352976
0.009848316 -0.012540739 0.008033477 -0.04769163 0.021404883 0.018706765 0.027405836 0.05801386
-0.021612491 0.07477605 0.083153695 -0.08561336 -0.015607054 -0.01956782 -0.023790248 0.035700012
0.004718668 0.03323963 -0.02053832 -0.029578632 0.01163543 0.022548381 -0.027700962 0.0062469593
-0.01726526 -0.050316263 0.0036898667 -0.0026442583 0.05247497 0.07988272 -0.0057718745 -0.011132007
-0.026657918 -0.0059095835 0.045880854 -0.066493206 -0.054553684 0.00077856344 -0.03154547 -0.04587294
-0.026777606 -0.022587433 0.053772047 0.0147989085 -0.06329505 -0.03568432 -0.01874034 -0.04125215
-0.035088006 0.038051102 -0.024435276 0.053201217 0.010854762 -0.05739254 0.013707692 -0.03827381
-0.025408594 1.0861437e-05 -0.04162359 -0.014472368 0.017537782 0.060909465 0.023420535 0.04061506
0.06641454 0.012439301 -0.02262632 0.038148005 -0.04254538 0.02089422 -0.059923306 -0.0289879
0.011410871 -0.024450712 0.036819514 -0.013828784 0.007913392 -0.069101095 -0.05942332 0.025035163
0.032410096 -0.021624114 -0.04724578 -0.011501853 -0.030325145 -0.05789917 -0.004362922 -0.02491623
0.048716508 -0.02841491 -0.011511649 0.0041591157 -0.0138029475 -0.032569937 -0.014601082 0.053658526
0.008640366 0.05997562 0.013866184 0.037755974 0.06832569 0.014130572 -0.017098522 0.025223851
0.06475338 0.046829253 0.03823728 0.073172696 0.076306336 0.067292884 -0.020838048 0.016692484
0.057945825 0.060419932 0.038156394 0.041525386 0.019204041 -0.0393474 0.026230162 0.0030316154
-0.00017386452 0.023069037 -0.03343463 -0.009765337 0.028720288 -0.018705681 0.013212385 -0.0052129272
-0.016906258 0.05171703 0.049227554 0.022111475 -0.037327804 -0.0041981665 -0.008726273 -0.104727
0.020256516 0.050994795 0.04170267 -0.039590545 0.040247828 0.022198318 0.001827781 0.070436545
0.024409285 0.0065363944 -0.014934867 0.059880458 0.0031399187 -0.014757282 -0.013277826 0.045058224
-0.012970222 -0.0023076052 -0.04450488 0.0044682533 0.048747905 -0.00063181354 0.03291874 0.004318341
0.017617099 0.047808785 0.019626213 0.011822272 0.03722664 0.0061649904 0.016929507 0.022066401
-0.0039046912 -0.053388502 0.007846843 0.044317935 0.0071727354 0.06344023 0.060562164 0.088371426
0.050722066 0.029033411 -0.039722543 -0.02655404 0.051683884 0.062428273 0.010413684 -0.035481524
-0.012692595 0.022783684 -0.007171422 0.026665235 -0.027051954 -0.05424659 0.007984883 -0.059476867
-0.11699061 -0.06406225 -0.054913063 0.03936023 0.07534179 -0.04384265 0.04400069 -0.041380752
-0.019884966 -0.031910818 -0.012213708 0.0379397 0.024831606 0.01919478 -0.020307418 -0.027469926
0.01572574 0.013892753 -0.0015845125 0.021811318 -0.007199935 -0.03569291 -0.010467923 0.029564353

conv2.bias f4 [64]
00000000: 55b9 d23b 445f f3bc 889b 2d3d 7e93 f3bc
00000010: 8941 67bd f205 a63c 7cae b63b fa1c a13c
00000020: 3c56 0fbd 7dbe 03bd 7bcc a2bc a1cd 89bd
00000030: e893 31bd 8056 97bd efd9 b9bd 0a3e 81bd
00000040: e15d 0bbd 7efe 383c e9cc 19bc 1a7d ccbb
00000050: 5599 b23c 8ac2 3bbd 0bd7 d5bb 1494 723c
00000060: efdb 223c c06f 09bd 7aea 9a3c d3f4 1dbc
00000070: f971 31bd 0314 30bd ced6 c9bc 9db1 79bd
00000080: 625e 203d 7214 013d 40dc c03b f15c 3e3c
00000090: 4a6b a1bd d724 34bc c8d5 803c a375 d4ba
000000a0: 73d1 74bd a94c f1bb c9ed 4bbd e26a adbc
000000b0: bc4b 83bd f2fe f43c 9bcb 953b ff19 cfbc
000000c0: 023f 283d 6d66 b53b 105d 84bc 178b 37bd
000000d0: fd1a d43c cb90 6a3c 473a f43b de30 71bc
000000e0: b7f1 9ebc c501 2d3b b967 20bc 5438 bebc
000000f0: 75b0 ab3c 97e0 8abc d36f fe3c ddbc dd3c
0.0064307847 -0.029708512 0.042384654 -0.029733416 -0.056458984 0.020266507 0.0055749994 0.019667137
-0.03499435 -0.032164086 -0.019872895 -0.06728674 -0.043353945 -0.073895454 -0.09074771 -0.06310661
-0.034025077 0.011291144 -0.009387233 -0.006240499 0.02180163 -0.045839824 -0.0065258793 0.014805812
0.009940132 -0.03355384 0.018910635 -0.00964089 -0.043321583 -0.042987835 -0.02463856 -0.0609604
0.03915251 0.03151364 0.005885631 0.011618839 -0.07881792 -0.010995111 0.015726939 -0.0016209375
-0.05977006 -0.007363875 -0.049787316 -0.02116913 -0.064109296 0.029906724 0.004571391 -0.02528095
0.041075714 0.0055358917 -0.016157657 -0.04481038 0.025891775 0.014316748 0.0074532363 -0.0147211235
-0.019402368 0.002639876 -0.009790354 -0.023220219 0.020958165 -0.016952796 0.031059181 0.027067596

conv3.weight f4 [3, 64, 3, 3]
00000000: 901b 9c3c 3fa0 cf3c f44b 333c d687 91bc
00000010: 0f09 77bd d4ef 5fbb 1ca8 4739 4285 9cbc
00000020: fe58 4abc ee8f 81bb 7490 003c 65ca 58bc
00000030: d852 183b 61ee 393c 530b a3bd 58f1 eebc
00000040: a20f 9ebc 230f 3fbc 5e71 cb3b 1355 423c
00000050: df96 093d 4e8a 403b d7b0 763d 4573 293c
00000060: 7f9b a2bc e8d3 253d c87c ea3c 872e d1bc
00000070: 9c51 fcbc e526 a83b ce29 be3c d0e4 9abb
00000080: 525e 2bbd 61bb d1bc 0e4d 84bc 4a39 2fbd
00000090: 903c e23b 45a6 743d 2a7e 8a3d a6e1 cabc
000000a0: 1535 163d 974c ca3d 1fdc ca3c 3d19 643d
000000b0: 11fc 693d 6125 9ebc 5455 ebba 0fe8 8a3c
000000c0: 6068 f5bb 0d89 6d3d c187 79bc 2143 f6bb
000000d0: 68b8 dc3c d059 2eb9 43e1 a33c 4df8 d7bc
000000e0: 0966 fbbc 5f9b 08bd 4bef 5cbc 28a4 26bd
000000f0: cf0c a5bc 9efc eabb 97dc e23c cee8 fe3c
00000100: cbe1 0fbd 31aa a1bc 15c8 593d 2cf8 e03c
00000110: 7523 733d 37ed 90bc 0fcf f73b 35df 193d
00000120: 3ffe 993c 0de3 213c f4a3 fb3a c32d 763c
00000130: 2c35 5b3d 9a1d 4bbc cd83 a0bc 1468 da3c
00000140: 98c2 eabc 26e6 f63c 0e15 a73d 4a2c 163d
00000150: da86 ca3c 1b28 493c 70de a53b 64a4 6bbc
00000160: 197f eebc 7f36 33bd 14fd 48bd 01cc 4b3c
00000170: d65e cb3b 7be9 943c ac72 393d 7943 c13c
00000180: d4a8 78bd 8849 3c3d 3313 bd3c d2cf 883c
00000190: c112 be3c 80bf 8ebb 3333 91bc f730 08bd
000001a0: 96c5 6fbb bca5 f13c 5e9d 383b af77 a6bc
000001b0: 3dfd 9e3c 0de2 babc 4b28 4cbc f82a 9bbc
000001c0: c116 14bd 93e3 43bc c65b a13b 2433 91bb
000001d0: e11d bdbc 76b8 fb3b 3196 a3bd 2271 a0bc
000001e0: 6407 99bc 0876 eabd 2fc1 dabc 46db 3e3c
000001f0: 3a88 81bc d534 ab3b 7ed8 afbd 89d0 00be
00000200: 963f 64bb 5804 8ebc 855c b5bd 5c89 05bc
00000210: ba74 f63b 5d57 83bc a8ee 3d3c 3c15 84bb
00000220: 3c2b cfbc 94c2 933c 394e 68bd ccc0 913d
00000230: 33eb 9abc 9742 96bc f2d2 14bd 6f10 73ba
00000240: e836 b0b9 f001 17bd cdd0 33bd 906e bebc
00000250: 9e67 b03c 492f ca3c cd07 f63b 3c53 3a3d
00000260: 4bc2 0a3b 2382 073c 952f 563c f44a 963d
00000270: c103 903c 161b 00bc 4531 c03c 4d7c b13c
00000280: 4221 643d ebdd 2f3d 39bc 11bd ac60 10bc
00000290: f0c5 033d d968 4f3d f055 743c f6e8 d6bc
000002a0: 2b18 ff3c 958b 513d 0e79 15bd edee 813b
000002b0: 6a2a f5bc 8c85 c6bc 7186 953d cf55 6dbc
000002c0: fa25 97bc cfb6 d83c 7ed7 0fbd 2402 1abc
000002d0: 5cb5 a2bc 0137 803d b0bc debc 1384 693c
000002e0: f1a9 7a3d f9de 773c 5af4 4f3c 49c7 103c
000002f0: 1003 eb3c 7e9b 07bc 0667 d4bb f1a1 fdbc
00000300: f84b a03c f586 48bd 4389 7d3c c7e0 38bd
00000310: eb97 eb3c 4de9 a0bb dec1 4ebd d073 76bc
00000320: a024 603c c0bd 503c 9187 553d 9434 383d
00000330: 98bc 343c d71e 263e cee8 063d 254c e9bb
00000340: 32f7 8f3c 41c8 043c d4a7 a9bc 4aa6 b0bc
00000350: 1a1e c9bc 77fb 363a 39e5 e03c bc9a e4bc
00000360: edae 513d cec9 fe3c 7410 b83d f9ce c73c
00000370: beda a93c a85f 8e3d ecef e2bc 5dad 71bb
00000380: f73a 14bc 8413 853b 44e5 a13c 65f7 cc3b
00000390: d64c 793c 1cbb 13bd 3bea 5d3c 8a6e f3ba
000003a0: f6ac 3fbd ab98 163c 830c 4dbc f961 5cbc
000003b0: ca8a d13c aab6 d6bb f3a4 2b3d 5674 6d3d
000003c0: 5b7a 173c 20bd 82bc 394a 523c a259 3d3d
000003d0: 5dcf 3a3d a075 ea3c 3148 743d c2e0 353c
000003e0: 10ae ac3d c12f 213c e6a1 3e3d 8a25 dd3b
000003f0: 8f85 ffbc d0b8 f1bb 3c27 c43b 609e 443a
0.019056112 0.025344966 0.010943402 -0.017764967 -0.060311373 -0.0034170048 0.00019040745 -0.019106511
-0.012350319 -0.0039539253 0.00784694 -0.013231848 0.0023242738 0.011348338 -0.07961144 -0.029167816
-0.019294564 -0.011661324 0.006208583 0.011861104 0.033591148 0.002937931 0.06022724 0.010342424
-0.019849537 0.040485293 0.028623953 -0.025534881 -0.030800633 0.0051315897 0.023213293 -0.0047269836
-0.041837998 -0.025602045 -0.016150024 -0.042779244 0.0069041923 0.05972888 0.06762345 -0.0247658
0.036671717 0.098778896 0.024763165 0.05568813 0.057125155 -0.019304933 -0.0017954507 0.016956357
-0.007489249 0.05799203 -0.01523012 -0.0075153266 0.0269434 -0.00016627391 0.020004874 -0.026363516
-0.030688303 -0.0333513 -0.013484786 -0.040683895 -0.02014771 -0.0071712276 0.027693076 0.03111687
-0.035127442 -0.019734474 0.05316933 0.027462088 0.059359986 -0.017691238 0.007562525 0.037566382
0.018797992 0.009880793 0.0019198642 0.015025559 0.053517506 -0.012397194 -0.019594098 0.026660956
-0.028657243 0.03013904 0.08158313 0.03666333 0.024722505 0.012277628 0.005061917 -0.0143824555
-0.02911334 -0.043753143 -0.04906948 0.012438775 0.0062063737 0.018177738 0.045275375 0.023591744
-0.060707882 0.045968562 0.023080444 0.016700659 0.023202302 -0.0043563247 -0.017724609 -0.03324982
-0.0036586276 0.029497974 0.002816997 -0.020320741 0.019407863 -0.022812868 -0.0124607785 -0.018941388
-0.036154512 -0.011956113 0.0049242703 -0.0044311453 -0.023085536 0.0076819016 -0.07987631 -0.019585196
-0.018680282 -0.11448294 -0.026703445 0.011648959 -0.015812028 0.005224804 -0.085862145 -0.1257955
-0.003482794 -0.017336056 -0.08855537 -0.008150425 0.007521239 -0.016032869 0.011592545 -0.0040308516
-0.02528917 0.018037118 -0.056715224 0.07116851 -0.01891098 -0.0183423 -0.036333986 -0.0009272163
-0.00033610244 -0.036867082 -0.0439003 -0.02324608 0.021533784 0.02468075 0.007508254 0.045489535
0.0021172937 0.008270773 0.013072868 0.07338515 0.017579915 -0.007818958 0.023460994 0.021665717
0.05569578 0.042936247 -0.035579894 -0.008812111 0.03217119 0.0506371 0.014913067 -0.026234131
0.031139454 0.051158506 -0.0364924 0.0039652498 -0.029927451 -0.024233602 0.07301033 -0.01448579
-0.018450726 0.026454357 -0.03511762 -0.009399924 -0.01986187 0.06260491 -0.027189583 0.01425268
0.061197225 0.015128844 0.012692535 0.008836576 0.028687984 -0.008276818 -0.006482008 -0.030961009
0.019567475 -0.04895683 0.01547462 -0.04513624 0.028758964 -0.004910624 -0.050477855 -0.01504226
0.013680607 0.012740552 0.05213124 0.044972017 0.011031292 0.16222702 0.032936864 -0.007119673
0.017573927 0.008104385 -0.02070991 -0.021563668 -0.024550486 0.000698022 0.027453052 -0.027905814
0.051192213 0.031102087 0.08987513 0.024390684 0.020734187 0.06951839 -0.027702294 -0.0036877014
-0.009047261 0.0040611643 0.019762643 0.0062550777 0.015216073 -0.036067113 0.013544614 -0.0018572372
-0.046795808 0.009191672 -0.01251519 -0.013451093 0.025578875 -0.006552537 0.041905355 0.057972275
0.00924548 -0.015959322 0.012835079 0.04622806 0.045607913 0.028620541 0.05963916 0.01110095
0.08431637 0.009838046 0.046541117 0.00674886 -0.031191615 -0.0073767677 0.0059861224 0.00075004064

conv3.bias f4 [3]
00000000: 304f ee3c def0 483c b7ef 073d
0.029090494 0.012264458 0.033187594

conv1.weight f4 [64, 3, 3, 3]
00000000: 21f1 ebbd 422e ae3d f23e 2c3c e886 593e
00000010: 344a 3abd 9254 07bb 805b e3bd 1994 dd3d
00000020: d941 943d f6c4 7fbc 7f74 82bb b98c ecbd
00000030: 6654 7e3c b1aa 5abe 5bb8 823d 248f 85bd
00000040: 63ff ee3d 5090 9e3d 7974 9b3b 8c7b b63d
00000050: c283 003e 27b6 103e 3089 f7bd 7505 e4bd
00000060: eebb dc3d c3ee 1a3e 678f dbbb 9c3d 983c
00000070: bbb0 c83b a4ae adbd 9da0 84bd dd96 6bbd
00000080: d79a f4bc e953 bfbd 6e96 4dbe 7b08 c53d
00000090: fe65 1b3d d9f7 1d3e 719f e13d 77f8 7fbd
000000a0: bf68 febd 54d4 7c3d 09a2 febc ffda aabd
000000b0: 0640 293d b791 c8bd 8139 223e 16e9 c3bd
000000c0: bbb2 543d 6ede f63d 5391 5d3d 10f0 f03d
000000d0: 6b88 7cbd 60db 1bbe abc2 0d3e 5952 173e
000000e0: cb53 903c d2db 823d a13d 453e 79d5 9dbd
000000f0: f54f a53d a260 0dbe f8c4 acba 7a03 d6bd
00000100: b131 0dbd a85e 013e ba79 47be fa0a 4bbe
00000110: a660 a2bd 7347 91bd ecf8 e33c 6d9a ea3d
00000120: e381 4fbd 9a6b 213e 2580 843c 4e8b 20be
00000130: 63c2 f3bc 80bb 033e d3b5 ed3c c50f e13d
00000140: 1990 473c 3ea8 17be a1f5 0ebd 733b 67bc
00000150: 9f32 37be 2b14 cc3a d3ad 113d bd28 d1bd
00000160: 6d1b 35be ead3 913d de5b a23c 4599 d93a
00000170: 6d5d 8a3d 1376 293d 999e 1bbd 80d9 3c3c
00000180: a98e e0bc e2d8 523d c6b7 a8ba 83ec 103e
00000190: 1a2f b73d c49b f13c 81b6 d93d 5f24 e23d
000001a0: a2ec 02be eb80 66bd 364e 09be f65a 21bc
000001b0: 5fe6 79be 6af1 223e f2e2 0b3e fae3 643d
000001c0: 249f 59bd 48b6 40be 595b 5dbe a8c9 19be
000001d0: e96d 36be c23a d1bd 19c1 593e bc0f f73d
000001e0: 09b5 f2bd 207f 16bb 4d5b c93d e646 763d
000001f0: ff88 42be 51f9 2e3e 7059 dabc aa1f 883d
00000200: 244b ce3d be91 4c3c fa0f 3ebe d24c 503e
00000210: 4d96 e5bc 38f5 9dbd b64b 7c3e d9e2 573e
00000220: 372b 37be 952d 05be feab 203e ebfb 2a3e
00000230: a6ef c03d 019f b2bc 3595 1f3e aa17 f83c
00000240: 7176 853d 8b40 e0bd f1c9 ddbd 96f0 d3bd
00000250: 4f9a 923a 99ea a7bd b32a b23c 0941 7abd
00000260: 17a5 0dbe 5d85 d9ba 71b0 873b 5002 5d3e
00000270: 5fca 483e 0d67 7c3d 1f76 0e3e 4028 b4bd
00000280: bef7 b0bd d35e 153e 450b 273e b83c 2f3d
00000290: f6a2 33be 1968 fb3c d148 c23d 5e51 41be
000002a0: 7069 37be 5c65 aa3d 942c d8bd 5e24 d13d
000002b0: 06a0 afbc 69b6 dcbc 2a9b 23be 267b 403e
000002c0: d282 8f3d cc46 9a3d b2ca 0c3e 88ea 91bb
000002d0: 82c6 1d3e d41b f9bd 82b5 65bd d763 033e
000002e0: 3809 6c3d b8c4 a8bc 996b f83c 41bc 073e
000002f0: bd7e 903d aac5 33be 7507 92bc d3bb 3fbe
00000300: f554 9c3d 08cd 1ebd 95bd 913d 5903 20bd
00000310: 8070 0ebe d5d2 efbd fcd4 103e 2f94 1d3e
00000320: 83ee ac3d 8b69 a43d c3af 9abd 96e1 3a3e
00000330: 25fd 0ebe cc3e 3e3e b017 cd3d 5951 ed3d
00000340: f641 16bc d2e0 b6bd babb 343e 7e5b 7abd
00000350: 674e 2bbc c1af 33be 4ea6 65bd 6b0e 1fbd
00000360: f354 b3bc 7129 8d3c 2541 42bd da25 2ebe
00000370: 92e4 6dbd 6375 80be 6ba7 3dbe e80f ff3d
00000380: 81fa b13c 21f3 df3d 52af dfbb 608a f13d
00000390: ccb1 873c 45f8 07be 8a92 323e d5c9 193e
000003a0: 04b3 f53d 27b8 dabd a65e 03be d699 b9bd
000003b0: 8232 603e 03d4 0ebe f09f 78be d139 71bd
000003c0: 85e8 c53c 103d ee3c 8988 97bc 3ba0 a83c
000003d0: bcde 453e 32e5 f2bd 55d8 59be a42a 123d
000003e0: 8132 96bd f88a 273d 352e 053d 60f2 493e
000003f0: a4c2 56bd a661 7dbd be31 83bd b7b2 cebd
-0.11520601 0.08504917 0.010513054 0.21242869 -0.045480922 -0.0020649773 -0.111014366 0.10819263
0.07239122 -0.015610924 -0.0039811726 -0.11550278 0.015523052 -0.21354176 0.06382819 -0.065214425
0.11669805 0.07742369 0.004744109 0.089102834 0.12550262 0.14131986 -0.12086713 -0.11133853
0.10778032 0.15130143 -0.0067004445 0.018584065 0.0061245835 -0.08480576 -0.06475947 -0.05751692
-0.02985899 -0.093421765 -0.20076916 0.09620758 0.037939064 0.15426578 0.11016739 -0.062492814
-0.124223225 0.06172593 -0.031083124 -0.083425514 0.041320823 -0.09793418 0.15842248 -0.09565942
0.051928263 0.12054144 0.05409367 0.11764538 -0.061653536 -0.15220404 0.13843791 0.14777507
0.01761808 0.06389584 0.19261791 -0.07706732 0.08071891 -0.13806394 -0.001318126 -0.10449882
-0.034471218 0.12633765 -0.19480029 -0.19828406 -0.079285905 -0.07093706 0.027828656 0.11455236
-0.05066098 0.15763703 0.016174385 -0.1567814 -0.029755777 0.12864494 0.029017365 0.10989336
0.012180352 -0.14810273 -0.03490222 -0.014113295 -0.17890404 0.0015569975 0.035566162 -0.10212848
-0.17686243 0.071204975 0.019819196 0.0016601464 0.06756101 0.04137237 -0.037993047 0.011526465
-0.027411776 0.051476367 -0.0012872152 0.14152722 0.08944531 0.02949322 0.10630513 0.110420935
-0.12785581 -0.05627529 -0.13408741 -0.009848347 -0.24404286 0.15912405 0.13660792 0.055881478
-0.053130284 -0.18819535 -0.21616878 -0.15018332 -0.17815365 -0.10216285 0.21265067 0.12063548
-0.11850936 -0.0022963956 0.09831867 0.060126208 -0.18997572 0.17087294 -0.026653975 0.066466644
0.10072926 0.0124859195 -0.18560782 0.20341805 -0.02802577 -0.077127874 0.24638256 0.2108263
-0.17887579 -0.1300567 0.1569061 0.16697662 0.09420709 -0.021804335 0.15584262 0.030284721
0.065167315 -0.109498106 -0.10829533 -0.103486225 0.0011184904 -0.08199043 0.021748876 -0.06109718
-0.13832508 -0.0016595531 0.0041409065 0.21582913 0.19608448 0.061621714 0.13912247 -0.087967396
-0.08641003 0.14586954 0.16312893 0.042782515 -0.17542633 0.030689286 0.09486545 -0.18878695
-0.17911315 0.08320114 -0.105553776 0.102120146 -0.02143861 -0.026942449 -0.15977159 0.18796977
0.07007374 0.07533035 0.13749197 -0.004453007 0.15407756 -0.12163511 -0.056081302 0.12831055
0.05762598 -0.020601615 0.030324744 0.13255407 0.070554234 -0.17555872 -0.017825821 -0.18723993
0.07633392 -0.03876975 0.07116238 -0.039065693 -0.13910103 -0.11710135 0.14143747 0.15388559
0.0844393 0.08027943 -0.07553055 0.18250117 -0.13963754 0.18578643 0.10014284 0.115877815
-0.009171 -0.089296 0.17649737 -0.06112241 -0.010455704 -0.17547514 -0.056066804 -0.03883211
-0.021891093 0.017231675 -0.047425408 -0.17006627 -0.05807931 -0.2508956 -0.18520896 0.12454206
0.021725895 0.10935045 -0.0068263197 0.11793971 0.016564272 -0.13278301 0.17438713 0.15018399
0.11997035 -0.106796555 -0.12829074 -0.09062545 0.21894267 -0.13948064 -0.24279761 -0.05889303
0.024158726 0.029081851 -0.018497722 0.020584216 0.19323248 -0.11860122 -0.2127393 0.035685197
-0.073338516 0.040904015 0.03251477 0.19721365 -0.052431718 -0.061860703 -0.06405972 -0.10092681

conv1.bias f4 [64]
00000000: e921 883e a5dd 18be 6eec 6b3e 9ac8 d6bc
00000010: 76cc b6bd 2481 a5bd 71fa 5bbd 7cbe 01be
00000020: fe60 9cbe 5cff 4cbe 8884 203d 761f 87be
00000030: e24e af3d 22cc 9cbc d06d e23d 8601 54be
00000040: 9c3b 5c3d 33af 0dbe f023 3d3e 2eea 0abe
00000050: a969 ebbc e6b9 5a3d d79d 75be 9702 97bd
00000060: b18e 1ebe d4e5 a73d a203 7b3d 0a73 0bbe
00000070: aca8 0f3e 4382 1a3c 90c4 95bc d965 4fbe
00000080: 68e3 6abc fd36 18be a7e6 1b3e 8c9b 413e
00000090: 1bd6 50be 6826 483d 0e67 5dbd 1833 1a3e
000000a0: 8ead 103e 4fd7 903d d3a6 f5bd 2a2b 1e3e
000000b0: 6b21 29be 9090 f03d 8b2f bf3c 3d98 36be
000000c0: 25a0 d2bd 1af7 86be f56d 66be 6a16 573e
000000d0: 363b 54be 4a33 24be 4bdc 393c efcf 873b
000000e0: 1713 173d e7b6 023e 9137 0ebe d210 0b3e
000000f0: 1d3a 85be 384e 35be 8fd4 6ebe d3a4 3fbe
0.2658837 -0.149283 0.2303941 -0.026218701 -0.089257166 -0.08081272 -0.053705636 -0.1267032
-0.3054275 -0.20019287 0.03918889 -0.2639119 0.085599676 -0.019140307 0.11056101 -0.20703706
0.053767785 -0.13836364 0.1847074 -0.13565895 -0.028736906 0.053399943 -0.23985992 -0.07373541
-0.1548412 0.08198133 0.06128276 -0.13618103 0.14029187 0.009430471 -0.018282205 -0.20253696
-0.014336444 -0.14864726 0.15224706 0.18906993 -0.20394175 0.048864752 -0.05405336 0.15058553
0.14128706 0.07072317 -0.1199471 0.15446153 -0.16516654 0.11746323 0.0233381 -0.17831512
-0.102844514 -0.263604 -0.22502883 0.21004644 -0.20725712 -0.1603519 0.011344026 0.0041446607
0.03688344 0.12765084 -0.13888384 0.13580635 -0.260209 -0.1770562 -0.23323272 -0.18715219

conv2.weight f4 [64, 64, 3, 3]
00000000: 5cdb 2cbd 616d c1bd 49c3 9cbd 3edf 4c3c
00000010: b12b 25bd ff4e f6bd 74cb a3bd 2b3b a7bb
00000020: 525f bebc 7f57 cf3c ad2f 193d 2c3e f9bb
00000030: 58fd 0bbd 2cb3 963c ff17 123d dd71 40bd
00000040: 3a7f fabc ab8d 0a3c d45a 2ebd 6f97 debc
00000050: c3b7 9fbd dfd1 ebbc c381 a9bc 7735 23bd
00000060: a8bd 9abd 329d c7bd cb4d 4ebd 4993 79bb
00000070: 5018 873b 1b26 e5bc bdfd 9cbb c543 ed3a
00000080: 9c03 b43c 3d6a 3fbc 690d 6d3c 3bb0 d1bb
00000090: 7521 a0bb 8875 d83d 599b b53d ebb9 d0bd
000000a0: c786 d43c 69d5 e83d 71d5 2fbe c750 1fbd
000000b0: ce12 b63c 7836 8ebd 3af4 2cbc 149e 0cbd
000000c0: 4f6a aabd 5c60 d2bd 1979 11be da4c 493d
000000d0: 43f3 ba3c 9ef1 dcbd 1fa6 c73c ff2e e13c
000000e0: 6e25 e6bc 5e40 a6bb 6053 0fbd 8714 2c3c
000000f0: 6800 063d 3d6c 32bc 1d2f 033d e334 63bc
00000100: b55d 533d c8e3 363b 811c 45bc 4c17 d73c
00000110: 6a0e efbc 15de 45bc 94d3 f5bb d466 3d3c
00000120: 157c b23d 3d3c 4b3d ebfd 603d e7bb ed3d
00000130: 8401 473e e19d 043e 60ee 40bc a68e a93d
00000140: ff85 4c3d 8d83 c73c c1bb 54bb 767b 543d
00000150: f8ec 31bc ac72 edbc 7d80 ba3c 2a0e 263c
00000160: 2211 1bbd aba2 713c 82d1 6ebc cfd3 67bd
00000170: 111a 99bb df22 38bd d499 1cbd e994 633d
00000180: 34e8 95bc 0ccd 93bc d46c bbbc d77c d4bb
00000190: 2775 af3c 83f4 2cbd db71 e53c ea9a a23c
000001a0: 48d0 e6bc 5131 a73d ad5f 3f3d fd89 76bd
000001b0: f33e acbc f538 a03c 30a9 2b3d 9174 e43c
000001c0: e494 2e3c fe45 813c 3ce6 013d 3b00 053d
000001d0: 3266 223c 13c9 b33d 8a93 1e3e 29a2 e73c
000001e0: f56e 263a 9e1a 4f3d 069f 773c 25c5 fa3c
000001f0: 8889 8d3d 4ee5 2bbd 8c8e 693d 00ab 143d
00000200: 0342 c8bc 273c ca3c 0fdb 9e3c 1a9e 4dbc
00000210: cc62 bcbb 660b abbc 7a44 b4bd fecc 113d
00000220: 170e 533d 717c 75bd d9ac ad3d 92e6 983c
00000230: 0d0d 18bd 092d 863d 3467 983d 16bc 9ebd
00000240: 41da f2bc a3bc 113d 6e04 59bd 7da7 80bb
00000250: 6f27 c8bc 8136 6cbc 7c2f f9bc a11b c53c
00000260: fba5 38bd 7a15 38bc 04f3 adbc a98e 56bc
00000270: 47c6 0b3e c403 e33d 4d5f b73d 04b5 543d
00000280: f02a f93d a79a 9c3d e642 75bd b4e1 debc
00000290: 6901 80bd ec4c c9bc 56b8 9fbc 043d dcbc
000002a0: 1046 8ebd 94f3 78bd 6cc5 73bd 211a 8abd
000002b0: 5883 16bd e22b 1a3d 2a76 743b abf4 ab3c
000002c0: 4db9 ab3d 6d7f 6d3d 4ea5 953d 63da 643d
000002d0: fbce 023a 5774 053c 1852 57bc 27c2 e73c
000002e0: 6c65 8bbd fe2e 26bd 9b47 ea3c ae74 f23b
000002f0: 3f82 cbbd 2e1d 33bd 52d8 08bd d3a1 e9bd
00000300: 7b61 67bd 4de7 c2bd e2e6 adbd 2ee0 603c
00000310: be80 7ebd 2a48 89bd 3cc4 59bb ec61 023d
00000320: 560a fcbc 3423 11bc 4ff3 df3d 492c 04bd
00000330: 42f5 a3bb 0102 ac3c 515c 10bd 2402 f4bc
00000340: 25fb 32bd 592a 82bc 7832 b83b 3e47 38bc
00000350: 4f9e 843c 24d9 e5ba 4f08 25bb 0aff dc3b
00000360: a76d 44ba 71a9 1dbc b624 02bd d41a 503d
00000370: 3b02 7d3d 945b 043d 64a5 08bd ef4c 133d
00000380: ca4c c4bc 1d56 aabd 0418 40bd e812 ea39
00000390: ca5b 16bd d28c 29bc 2777 393d c529 bcbd
000003a0: 7812 943c 963e 31bc cdfe a73a ac46 203c
000003b0: 3696 13bd ecf3 49bc 5805 223d f9a4 443c
000003c0: e7d2 213d 1574 153d 1596 8e3c 1911 bd3c
000003d0: feff 0abd 5628 53bd 2c40 e5bb c061 993c
000003e0: 4c14 ebba 069a aebb 922e a13c f1a3 a4ba
000003f0: 94f9 7fbc 9ed5 743c 84e2 323b 0a39 433c
-0.042201385 -0.094446905 -0.07654435 0.012504397 -0.04032487 -0.12026786 -0.0799779 -0.005103489
-0.023238812 0.025310276 0.037398983 -0.0076062884 -0.034177154 0.018395983 0.035667416 -0.04698359
-0.030578244 0.008456628 -0.04256709 -0.027171819 -0.07798722 -0.028786598 -0.020691758 -0.03984591
-0.07555705 -0.097467795 -0.050367158 -0.0038082174 0.0041227713 -0.027972272 -0.00479099 0.0018101862
0.021974377 -0.011683044 0.014468529 -0.006399182 -0.004886801 0.10569292 0.08867521 -0.10191711
0.025943173 0.1136883 -0.17171265 -0.038895395 0.022225764 -0.06943983 -0.010556275 -0.034330443
-0.08321058 -0.10272285 -0.14206351 0.049145557 0.022821074 -0.10788272 0.024371205 0.02748823
-0.02809402 -0.005073591 -0.034991622 0.010502941 0.03271523 -0.010890064 0.032027353 -0.01386759
0.051603038 0.0027906764 -0.012030722 0.026256226 -0.029181678 -0.012076874 -0.0075020287 0.011560161
0.08715073 0.049617995 0.054929655 0.11608105 0.19434172 0.12950851 -0.011775583 0.08279161
0.049932476 0.02435472 -0.0032460543 0.051875554 -0.01085972 -0.028985344 0.022766346 0.010135213
-0.037858136 0.014748256 -0.014576318 -0.05659848 -0.004672297 -0.04495513 -0.03823264 0.055561934
-0.0182992 -0.01804211 -0.022879042 -0.0064846086 0.021418167 -0.042225372 0.028008392 0.01984926
-0.028175488 0.08163703 0.046722103 -0.06019019 -0.02102611 0.01955841 0.041909397 0.027887614
0.0106556155 0.015780445 0.03171371 0.032470923 0.009912061 0.08778586 0.15485969 0.028275566
0.00063489313 0.050562494 0.015113598 0.030611584 0.06910998 -0.04196673 0.05702071 0.03629589
-0.02444554 0.024686886 0.019391565 -0.012549901 -0.005749082 -0.020879459 -0.08802123 0.035595886
0.05152711 -0.05993313 0.08480234 0.018664632 -0.03712182 0.065515585 0.074415594 -0.07750718
-0.029645087 0.03558029 -0.05298274 -0.003926216 -0.024432866 -0.014417292 -0.03041815 0.024061026
-0.045080166 -0.011235589 -0.021234043 -0.013095536 0.13649856 0.110847026 0.08953724 0.051930442
0.12166393 0.07646685 -0.059878252 -0.027207233 -0.06250269 -0.024572812 -0.019497078 -0.026884563
-0.06946957 -0.06077917 -0.059514448 -0.06743265 -0.036746353 0.037639506 0.0037301877 0.02099069
0.08384953 0.05798285 0.0730692 0.055872332 0.0004989949 0.008145413 -0.013142131 0.028290821
-0.06806454 -0.04057216 0.028598597 0.007399163 -0.09936952 -0.043729 -0.033409424 -0.11407819
-0.05648945 -0.095167734 -0.08491303 0.013725324 -0.062134497 -0.06703217 -0.0033228537 0.031831667
-0.030766647 -0.008858491 0.10935079 -0.032268796 -0.0050036022 0.02099705 -0.03524429 -0.029786177
-0.04369654 -0.015889334 0.0056212507 -0.011247454 0.016188769 -0.0017536026 -0.0025181954 0.00674427
-0.0007493146 -0.0096229175 -0.03177329 0.050806835 0.061769705 0.0323139 -0.033360854 0.03596204
-0.023962397 -0.08317206 -0.046897903 0.00044646044 -0.03670863 -0.010348516 0.04527965 -0.091876544
0.018075213 -0.010818144 0.0012817025 0.0097824745 -0.036031924 -0.012326222 0.039555877 0.012002223
0.039507773 0.036487658 0.017405549 0.023079442 -0.03393554 -0.05155214 -0.0069961753 0.018723369
-0.0017935126 -0.0053284196 0.019675527 -0.0012561065 -0.015623469 0.014943508 0.0027295658 0.011915455

conv2.bias f4 [64]
00000000: 49f9 6fbd 987d 2abd 1a7f 653c 5c72 bf3c
00000010: a352 d0bc 4110 903b 9ba2 6c3c 72f2 cabd
00000020: 6ad4 aabb 9631 62ba fc45 5b3d 84c5 a63c
00000030: ab1b 333c c963 33bd 010c 20be 54e0 0dbc
00000040: 557a fb3c 87bb 443c bba6 97bd a854 003d
00000050: cb34 4b3d 4368 943c 4ef8 11bd e355 483c
00000060: a147 ecbb fe49 8dbd 61de 013d ca9f 59bd
00000070: ea54 51bc a7ef a6bc ce48 b3bd 4f21 edbd
00000080: a147 46bd 4bea 8b3c 0e0a 053d 8f9b 873c
00000090: d692 e23c 0baf a1bc 3c6e 9e3c 3c84 a0bd
000000a0: b0d1 813c aaf0 cbbc 13bf 103d 3411 fe3c
000000b0: 01e3 38bd d15d ed3c 8f03 f63c d811 8dbc
000000c0: a23d bcbd 15ff 123b 4788 c2bc c313 1f3c
000000d0: 78ca 803c 1f45 b2bc 1b93 44bc 026f 113c
000000e0: 36c6 95bb 4f4b 173d c7d5 f1bc c131 79bd
000000f0: f329 cc3c 3dc3 23bd d6f6 d63c ef87 15bd
-0.058587346 -0.04162368 0.014007354 0.02336996 -0.02543003 0.004396469 0.014443065 -0.09909524
-0.00521331 -0.00086286047 0.05353354 0.020357855 0.0109318895 -0.043796334 -0.15629579 -0.008659441
0.03069798 0.012007601 -0.07404848 0.031330734 0.049610894 0.018116122 -0.035637192 0.012227508
-0.0072106873 -0.068988785 0.031706218 -0.053130902 -0.012776593 -0.020377947 -0.08754121 -0.11578619
-0.048408154 0.017079493 0.032480292 0.016553668 0.027657907 -0.019736787 0.019339673 -0.07837722
0.015847057 -0.024895031 0.035338473 0.031014062 -0.045138363 0.0289754 0.030030994 -0.017220423
-0.09191443 0.0022429873 -0.023746623 0.009709301 0.015721545 -0.021761475 -0.011997963 0.008876564
-0.0045707477 0.036937054 -0.029520882 -0.060838465 0.024922347 -0.039981116 0.026240747 -0.03650659

conv3.weight f4 [3, 64, 3, 3]
00000000: 198c 0ebd 4c81 07bd 8b6e 0b3d cc84 34bc
00000010: dfbe d1bd 0f10 3dbd 5f6f 373b 29e7 1dbd
00000020: 4e0f 0cbd fdda 1e3d b969 483b af87 123d
00000030: 7839 21bc f098 573d 02f7 9c3c eca8 85bd
00000040: 02fa 86ba eac1 523c 0222 2bbd 406f 0f3d
00000050: c002 113d c02c 05bc d545 9b3c ac42 1ebd
00000060: 92ab d1bc 6a96 793c b47a f8bc ea02 c33c
00000070: db0b 7f3d 8e4b 733d 7ec7 98b8 1c1a ac3c
00000080: 83f4 acbc fa19 c7bc 6096 033d 2aa4 da3c
00000090: 519f efbc db32 fdbc 0bd9 abbc 93be e73c
000000a0: af24 59bc 60ed 803c a678 6d3d 7b8f 883c
000000b0: 5b69 c9bb 244a acbc 7b9d 72bd 7911 db3c
000000c0: 89e2 e63c bdf5 343d 78b4 b1bb d94c 06bd
000000d0: 5ecb c83a d9e2 29bc 2043 963d b861 553d
000000e0: efd7 973c cbe4 b73d 0c89 b03d b6d1 603c
000000f0: 7e83 b3bc 5d1f 0c3d 8baa 08bd 31ae bb3d
00000100: 78f9 5a3d 2bbc 2e3a 3b8b 79bd b604 1b3d
00000110: f7d0 b93d 122a 16bd fdd8 0ebc e13f 6d3d
00000120: 1646 d2bb 636e 71bc 2f22 473d fc6e 0d3d
00000130: 41a8 a63c 8088 383d f28a 8f3c 8db7 f53c
00000140: 4283 b9bb 6538 323c 2df9 fb3c 65f2 9bbb
00000150: 7fea 20bd ce10 a5ba 04b9 0dbd 2e34 663d
00000160: 7da2 223d 7849 933c ecc1 403d 67fd 643c
00000170: 88c2 413d 3e57 69bc d95b 353d d956 233c
00000180: bd84 873c 23fb a03b 38d4 003d c579 963c
00000190: 8b3d d2bc 9c87 cdbc cfde 87bb 51c9 3dbc
000001a0: a4a8 44bd 7d0f 05bc b128 a23c 5762 c5bc
000001b0: 12f0 efbb b407 b63c 6800 483c 5338 35bc
000001c0: e086 313d f407 783d b6dc 273d 59eb 49b8
000001d0: 73bb f3bc f1e1 de3c fb24 923d 9509 dfbb
000001e0: 2b70 913a 229d 443d f93d 14bd 8941 89b9
000001f0: 9895 203b 8f94 58bc 7f57 c9bd af9f 19bd
00000200: 8532 613d 563a 29be 6544 febd 8113 b5bd
00000210: ee3d dcbd 471a bebd f1a8 25bd 7026 99bd
00000220: 0cec 30bd 309b 86bc 8fb0 26bd a15d 8abd
00000230: 1cb2 c93b c15b 9ebc 0279 e73c 26f7 58bd
00000240: 4b13 523d f21b 63bc 60d4 3a3d 96f0 97bb
00000250: 142d 79bb 8bc3 fb3c b89a c73c f432 cd3c
00000260: 706c cfbc e013 ef3c 3902 743d ec23 4e3d
00000270: 074b 313d 8ce7 783d b0ea 603c dd4d 4e3c
00000280: ad11 7639 c3fc 84bc 2215 c23c 0588 c8b9
00000290: 2e76 4cbd ba7a f8bc 1d11 aabd 626c 3dbc
000002a0: 743f 24bd 0c29 35bd da72 1b3d 5a78 713c
000002b0: 1d22 0a3d 0e57 363c 5b4a 8fbb bd46 7f3d
000002c0: de46 8b3c ad04 de3c 1ee5 3bba a724 f1bc
000002d0: 50a8 c4bb 6017 08bd bff7 a2bc 9f5b 0ebb
000002e0: 3d76 22bd 4e63 07bd 6c90 f8bb d94d 4d3c
000002f0: ec3d 4bbc a7c0 6fb9 f475 21bd 5de7 58bd
00000300: 76fc 2a3b 02d1 703c 8efe 93bc 0dd4 f1bc
00000310: d21b 30bd bb31 143d f5d1 9a3b 1e92 5ebd
00000320: 7f52 e33c 977d 5a3d dc9f d8bd 29c2 c93c
00000330: 16c6 593d 675f d63c e40c e5bc 5cc5 f7bc
00000340: 38e5 053d 1109 1bbd 445d 063d 1cb9 a43c
00000350: 2f95 82bc 5282 303d 66ab 9dbc 9705 053c
00000360: 64cc 3d3d 296f 62bc 9191 3e3d 6d6f 623d
00000370: b45a dbbb 3bca 543d 109a 653d b8b9 563d
00000380: b4f4 3b3d 77db 95bc e997 8f3d 0708 423d
00000390: 0154 e6bc 42dc 37bd b7f5 973c 1405 16bd
000003a0: 2fd7 42bd 54b4 c73c 0662 183d e0ab 7e3d
000003b0: dc56 1e3d 1b99 e13c 193a 613d f729 b63c
000003c0: 27bc 9e3c 5c6d 373d d424 0abb 6540 b33c
000003d0: b620 6b3b 5662 88bb 1250 eb3d 3f87 1c3e
000003e0: 6b36 913d 8462 9c3d 1242 973c 1854 383d
000003f0: 9bd0 fbbc f45d 023c 9f41 babb 82c7 26bd
-0.034801576 -0.03308229 0.03404097 -0.011017989 -0.10241484 -0.046157893 0.0027989966 -0.03855053
-0.034194283 0.038783062 0.0030580594 0.03577393 -0.009840362 0.052636087 0.019160751 -0.0652636
-0.0010297897 0.0128636155 -0.04178048 0.035018206 0.035403013 -0.008128345 0.018954197 -0.038637802
-0.025594506 0.015233615 -0.030331947 0.0238051 0.062267166 0.059398226 -7.285083e-05 0.021008544
-0.021112686 -0.024304379 0.03212583 0.026689608 -0.029250773 -0.030908039 -0.020977518 0.028289115
-0.013253375 0.01573819 0.057976387 0.01666998 -0.0061465926 -0.021031447 -0.059232216 0.02674173
0.028184192 0.044179667 -0.005423125 -0.03278813 0.0015319397 -0.010369026 0.07337022 0.052095145
0.018535582 0.08979186 0.086198896 0.013721874 -0.021913286 0.034209598 -0.033365767 0.09164084
0.05346057 0.00066656125 -0.060923796 0.03784629 0.0907306 -0.036661215 -0.008718726 0.057922248
-0.0064170463 -0.014735791 0.048616584 0.03452967 0.020343902 0.04505205 0.017522309 0.02999475
-0.005661399 0.010877703 0.030758465 -0.0047591203 -0.039286133 -0.0012593509 -0.034600273 0.056202106
0.039705742 0.017979369 0.04705994 0.013976431 0.04730466 -0.014241992 0.044277046 0.009969437
0.016542787 0.0049127503 0.031452388 0.018368611 -0.025664112 -0.025089078 -0.004146434 -0.011583642
-0.04801239 -0.0081213685 0.019794794 -0.024094744 -0.00732232 0.02222047 0.012207128 -0.011060792
0.043341517 0.06055446 0.04098197 -4.814132e-05 -0.029752469 0.027207347 0.0713596 -0.006806562
0.0011096051 0.048001416 -0.036191914 -0.00026179504 0.0024503227 -0.013219013 -0.09831142 -0.0375058
0.05497982 -0.1652616 -0.12415389 -0.08841611 -0.10754 -0.09282356 -0.04044432 -0.074780345
-0.04319386 -0.016431421 -0.040695723 -0.067561395 0.0061552655 -0.019330861 0.028255943 -0.052970074
0.05128793 -0.013861643 0.045612693 -0.0046368344 -0.0038021253 0.03073289 0.024365768 0.02504871
-0.025320262 0.029184282 0.059572432 0.050327227 0.043284442 0.060767695 0.013727829 0.012591806
0.00023466973 -0.016233807 0.023691718 -0.00038248315 -0.049917392 -0.030331958 -0.08304045 -0.011561485
-0.040099576 -0.0442286 0.037951328 0.014738167 0.03372394 0.011129154 -0.0043728775 0.06232332
0.017001566 0.027101839 -0.0007167625 -0.029436423 -0.0060015097 -0.033225417 -0.019893525 -0.002172209
-0.039663542 -0.03305369 -0.007585576 0.012530767 -0.0124049 -0.00022864585 -0.03941913 -0.05295502
0.002609042 0.014698269 -0.018065717 -0.029520059 -0.04299528 0.03618024 0.004724736 -0.054338567
0.027749298 0.053342428 -0.10577366 0.024628716 0.053167425 0.026168538 -0.027960248 -0.030245475
0.032689303 -0.037850443 0.03280379 0.020107798 -0.015940277 0.043093033 -0.019246768 0.0081190085
0.0463375 -0.013820448 0.04652554 0.055282045 -0.0066941623 0.051950675 0.05605513 0.05242321
0.045887664 -0.018293126 0.070113964 0.047370937 -0.028116228 -0.04488779 0.018549783 -0.036625937
-0.047568496 0.02437798 0.037202857 0.06217563 0.038657054 0.027538827 0.054987047 0.022236807
0.019376827 0.044782028 -0.002107908 0.021881292 0.0035877652 -0.004162113 0.114898816 0.15285967
0.070904575 0.07635978 0.018464122 0.045002073 -0.03073912 0.0079569705 -0.005684092 -0.04071761

conv3.bias f4 [3]
00000000: 1137 e5bc 6e1f 793b c6ae 373d
-0.02798036 0.0038013118 0.04484441
