modelMod/test_model.pth (torch, 328034 bytes, 12 tensors)

conv1.weight f4 [64, 3, 3, 3]
0.19343255 0.014665066 0.034474272 -0.13834055 0.08172218 -0.07684715 -0.14981443 0.101091355
-0.038745917 -0.11091188 0.051208124 -0.15249199 -0.067788474 0.0028468443 0.17051268 -0.17853348
-0.09098633 0.08646986 -0.14172722 -0.10568133 0.0013467569 0.15862006 0.040479615 -0.072631694
0.17686518 0.14221643 0.12851076 0.023046251 0.03891759 -0.04291667 0.11654847 -0.109131865
0.00032274367 -0.019524053 0.17677045 -0.15019417 0.1102483 -0.16405469 0.1443304 -0.14949769
0.07268804 -0.15460001 -0.042708352 -0.09356899 -0.1075618 0.1535569 -0.08754234 -0.18739106
0.18241324 0.102071755 -0.15442859 -0.0960841 0.07454158 -0.11372821 0.024776582 0.0058048824
-0.15504983 -0.014666997 0.039605856 0.0581717 0.10213935 -0.10244928 0.19297701 -0.079901405
0.103955224 -0.0063579874 -0.07314219 -0.17709413 -0.15429415 -0.080015846 -0.14786516 -0.18006107
0.038050555 0.09470179 -0.15530562 0.13927144 0.04627578 -0.009015595 0.13974725 0.070180155
0.09882234 0.17953809 0.12042177 0.04872181 0.054870088 -0.16790059 -0.008027413 0.16176215
0.021047099 -0.16585031 -0.1661538 -0.08503963 0.116341874 -0.03851073 -0.12874071 0.18545838
-0.07384881 -0.051562037 -0.18105043 0.13001662 0.10572479 -0.063877136 0.12146098 0.08113465
0.06391036 0.110670045 -0.021612236 0.084797464 0.096615486 0.014777301 -0.0113726575 -0.10264059
0.10632514 0.061444923 0.015023194 -0.06442332 0.15130495 0.12640591 0.19432959 0.12936397
0.07886222 0.008196154 0.1491421 -0.1187998 0.001133124 -0.18114135 0.1358655 -0.0058809654
0.121418685 0.021896891 0.030263573 -0.048742075 0.15049776 0.10008745 -0.07947837 0.024135608
-0.0034719075 -0.1819131 0.05983807 -0.11243557 -0.00582598 -0.016275967 -0.12076782 0.015705211
0.12731704 0.023632646 0.15501861 -0.038719293 -0.1783361 -0.09964228 -0.067374475 0.081618614
-0.06429466 0.14877221 0.030231334 -0.103656605 0.066665374 0.14369707 0.014763127 -0.05120032
-0.113023736 0.17331646 -0.026398396 0.10902479 -0.18246186 -0.048701417 -0.026601303 0.043223858
0.12165647 0.18672268 0.17473121 0.03713344 -0.031400394 -0.018074747 0.13732497 0.13766368
-0.04838842 0.14876062 0.18029088 0.1709533 -0.081571616 0.15615241 0.07713848 -0.15511824
0.11564291 -0.011117253 0.07686643 0.11720993 0.17882708 -0.17411898 0.07309694 -0.15913092
0.036672596 -0.07553818 0.18554221 0.12163587 0.06484932 0.113018915 0.08854873 -0.19194382
-0.006399637 0.18752234 -0.047324076 0.038446262 -0.016435469 0.15912567 -0.08655492 0.18307897
0.05726286 0.16828641 0.1516848 0.04866147 0.1591061 -0.18963605 -0.014733563 0.07297667
0.09871425 -0.076298244 0.16468082 -0.10553999 0.16430363 0.18078354 0.16819194 0.106059805
0.07090189 -0.17743963 0.0009796589 -0.045318495 0.1460937 -0.09265998 -0.18210034 0.18193036
0.029475823 0.017934225 -0.16348659 -0.12579352 0.123737104 -0.046220213 0.11826538 -0.16231929
0.030156635 0.0018820523 -0.11904824 0.09609968 0.19048205 -0.00830613 -0.16014682 -0.038661584
-0.07404873 -0.14357336 0.04099238 0.07352398 0.08605948 -0.15379184 0.16317669 -0.18391907
00000000: 2f13 463e bf45 703c e534 0d3d 25a9 0dbe
00000010: f55d a73d 0a62 9dbd f468 19be fc08 cf3d
00000020: 0ab4 1ebd c525 e3bd 9cbf 513d dc26 1cbe
00000030: afd4 8abd 1f92 3a3b e09a 2e3e 7bd1 36be
00000040: 0a57 babd 1c17 b13d f120 11be 746f d8bd
00000050: aa85 b03a 4c6d 223e f4cd 253d edbf 94bd
00000060: 251c 353e 2fa1 113e 5398 033e 7ecb bc3c
00000070: 0d68 1f3d 64c9 2fbd f7b0 ee3d 8780 dfbd
00000080: ec35 a939 e8f0 9fbc 5003 353e 80cc 19be
00000090: dcc9 e13d f4fd 27be 59cb 133e ec15 19be
000000a0: 78dd 943d 774f 1ebe f4ee 2ebd 19a1 bfbd
000000b0: 5c49 dcbd 053e 1d3e 6649 b3bd 71e3 3fbe
000000c0: 89ca 3a3e ff0a d13d 8722 1ebe bec7 c4bd
000000d0: 42a9 983d 56ea e8bd 42f8 ca3c e236 be3b
000000e0: 62c5 1ebe d84d 70bc c039 223d 7345 6e3d
000000f0: 6f2e d13d eed0 d1bd c49b 453e 59a3 a3bd
00000100: 7ae6 d43d aa56 d0bb 93cb 95bd 2a58 35be
00000110: 49ff 1dbe 59df a3bd f769 17be ee61 38be
00000120: e6da 1b3d 03f3 c13d 7008 1fbe 2c9d 0e3e
00000130: ac8b 3d3d 25b6 13bc e719 0f3e 9dba 8f3d
00000140: 5e63 ca3d d5d8 373e b09f f63d 8590 473d
00000150: 75bf 603d 22ee 2bbe 6985 03bc faa4 253e
00000160: f76a ac3c aad4 29be 3924 2abe 4229 aebd
00000170: a644 ee3d 6dbd 1dbd 9bd4 03be cde8 3d3e
00000180: 0b3e 97bd b732 53bd 4965 39be 1423 053e
00000190: 3d86 d83d 04d2 82bd 89c0 f83d ec29 a63d
000001a0: 6fe3 823d faa6 e23d 250c b1bc 4baa ad3d
000001b0: 57de c53d 7e1c 723c 6254 3abc 3b35 d2bd
000001c0: ffc0 d93d acad 7b3d d823 763c 60f0 83bd
000001d0: afef 1a3e 8d70 013e 56fe 463e fd77 043e
000001e0: 8482 a13d 2949 063c b5b8 183e 4f4d f3bd
000001f0: 5585 943a 1e7d 39be 5320 0b3e 1db5 c0bb
00000200: 5caa f83d 1c61 b33c 50eb f73c c5a5 47bd
00000210: 161c 1a3e a6fa cc3d 8ec5 a2bd 0ab8 c53c
00000220: f188 63bb 6d47 3abe c418 753d 9f44 e6bd
00000230: dde7 bebb 2d55 85bc 1e55 f7bd 37a8 803c
00000240: 665f 023e 4099 c13c 33bd 1e3e 1f98 1ebd
00000250: bd9d 36be 4011 ccbd a1fb 89bd a927 a73d
00000260: ebac 83bd be57 183e b4a7 f73c ea49 d4bd
00000270: db87 883d 5325 133e 0be1 713c 6db7 51bd
00000280: fd78 e7bd df79 313e 7341 d8bc 6448 df3d
00000290: 48d7 3abe 237b 47bd faea d9bc 800b 313d
000002a0: 0727 f93d 3b34 3f3e bdec 323e 3c19 183d
000002b0: b39d 00bd 7e11 94bc eb9e 0c3e b5f7 0c3e
000002c0: f032 46bd b454 183e 2c9e 383e 620e 2f3e
000002d0: 050f a7bd 6be6 1f3e c8fa 9d3d 51d7 1ebe
000002e0: 31d6 ec3d 2425 36bc 266c 9d3d c30b f03d
000002f0: 721e 373e 3f4c 32be d9b3 953d 37f3 22be
00000300: 0136 163d c3b3 9abd c7fe 3d3e 3a1c f93d
00000310: b8cf 843d 7676 e73d 0959 b53d ec8c 44be
00000320: 0cb4 d1bb db05 403e e4d6 41bd d479 1d3d
00000330: ada3 86bc d7f1 223e b543 b1bd 0e79 3b3e
00000340: 768c 6a3d 4653 2c3e 4353 1b3e 4051 473d
00000350: b6ec 223e f42f 42be 0b65 71bc cb74 953d
00000360: b22a ca3d 4142 9cbd 17a2 283e 5a25 d8bd
00000370: 363f 283e 521f 393e 823a 2c3e e235 d93d
00000380: 0335 913d bcb2 35be e667 803a e39f 39bd
00000390: 9699 153e 84c4 bdbd 8378 3abe f44b 3a3e
000003a0: 4877 f13c ccea 923c 0769 27be 04d0 00be
000003b0: e169 fd3d 6851 3dbd 1f35 f23d 0737 26be
000003c0: 0c0b f73c 32af f63a 90cf f3bd e9cf c43d
000003d0: ba0d 433e 6f16 08bc 87fd 23be 9c5b 1ebd
000003e0: dca6 97bd e504 13be a0e7 273d be93 963d
000003f0: f43f b03d 9c7b 1dbe ca17 273e 4855 3cbe

conv1.bias f4 [64]
0.06884078 -0.046752572 0.15609847 -0.102005415 0.07621862 0.12051771 0.08475605 -0.1779101
0.19207378 0.11611903 0.03823635 -0.10496695 -0.15784118 -0.06295768 0.0617428 0.1855273
-0.08653879 0.14484112 -0.056687847 0.1528796 0.04859494 -0.07899046 -0.07083602 -0.14239861
0.17316337 -0.028817197 -0.025316479 -0.0117381085 0.050500296 0.15685442 -0.06550759 -0.0620105
-0.10948917 0.13439052 0.16715783 0.11450555 0.102653965 -0.09711463 -0.15462121 0.0056114434
0.008177342 -0.007852598 -0.09718942 -0.11320566 0.07769862 0.17431691 -0.02106004 0.027356397
0.028377179 0.16217145 0.07348253 0.1293258 -0.044163566 0.027983116 0.07255782 0.0012092111
0.053978324 0.10511027 0.13160852 -0.1267287 0.059659865 0.15199769 0.13538642 0.055630915
00000000: 65fc 8c3d a07f 3fbd 47d8 1f3e 37e8 d0bd
00000010: 8218 9c3d fdd1 f63d 9494 ad3d 112e 36be
00000020: fdae 443e d0cf ed3d b89d 1c3d eaf8 d6bd
00000030: 1ea1 21be f5ef 80bd 05e6 7c3d defa 3d3e
00000040: 403b b1bd 3b51 143e 8431 68bd 788c 1c3e
00000050: 7d0b 473d c0c5 a1bd 7a12 91bd f1d0 11be
00000060: bd51 313e 0b12 ecbc 8164 cfbc 3251 40bc
00000070: 66d9 4e3d 729e 203e d828 86bd b9fe 7dbd
00000080: dc3b e0bd ab9d 093e 6c2b 2b3e e381 ea3d
00000090: 3e3c d23d 09e4 c6bd 0655 1ebe 33e0 b73b
000000a0: 42fa 053c 2fa8 00bc 3f0b c7bd 5ed8 e7bd
000000b0: 7420 9f3d 2280 323e 1b86 acbc 861a e03c
000000c0: 4277 e83c 4610 263e 027e 963d fc6d 043e
000000d0: dbe4 34bd d93c e53c 3299 943d 647e 9e3a
000000e0: 6018 5d3d 0e44 d73d 62c4 063e 2bc5 01be
000000f0: e75d 743d 48a5 1b3e bda2 0a3e 3edd 633d

conv2.weight f4 [64, 64, 3, 3]
-0.0066617075 -0.04383443 0.0152022205 0.0116339885 0.025801586 -0.041796137 -0.04197693 0.022213442
0.00801909 0.027511258 -0.034151107 -0.031140186 -0.03850353 0.014833768 0.010294822 0.015624863
-0.030737465 0.0100053195 0.02936045 -0.008510589 0.005932276 -0.02481286 0.033995155 0.015812533
0.03581754 -0.042960376 0.018515859 0.009567262 0.031638388 0.015349272 0.037100367 -0.033669587
0.01674318 0.007245595 -0.04605413 0.018440492 -0.013211047 -0.034675214 0.018762559 -0.006285871
-0.042684183 -0.019911136 -6.839831e-05 -0.021380968 0.029150922 -0.04006682 -0.009636748 0.007464564
0.025815975 -0.007905324 -0.028577616 -0.010819988 0.028589511 -0.027607705 -0.0036470834 -0.013135623
-0.023840826 0.008860868 -0.016815094 -0.041779216 0.027434953 0.016677875 -0.015219747 -0.026273478
0.03656492 -0.015382101 0.0063555418 -0.012495199 -0.016552484 -0.005679147 0.03276212 -0.0269269
0.020100078 0.02106929 -0.027550664 -0.0012726976 0.011802087 -0.00799768 0.021333532 -0.0024478203
-0.03213039 -0.039900307 0.007280046 -0.038346805 -0.034650546 -0.009683006 -0.03682856 0.02076485
-0.035653397 -0.015909223 0.028942496 -0.016923502 0.027767284 0.0108207725 -0.029959671 -0.037068468
0.007556746 -0.00051204325 0.031747185 0.03540453 -0.039450277 -0.025040563 0.027959546 0.012074001
0.008162215 0.023304056 0.01095418 -0.0034981645 0.0074283816 -0.019412212 0.0156409 -0.009242068
0.01659856 -0.029124439 -0.010577126 -0.0073376354 -0.0003894726 0.022519547 0.025347475 0.008487659
0.008351654 0.0017438122 0.04004373 0.03165977 -0.046549443 -0.03756555 -0.029980537 0.01557321
0.015370159 0.021549841 0.017411007 0.0041472786 0.019072773 -0.02986257 -0.0040300908 -0.03848095
0.004514794 -0.0022272074 -0.015705535 -0.02485407 0.008971653 -0.037912272 0.023993906 0.028459646
0.017849801 -0.00675583 -0.028660454 -0.01785699 -0.0008488711 0.03258164 0.036589734 0.020429745
-0.023413282 -0.003239131 -0.029544912 -0.027559634 0.0187417 0.012630043 0.022097904 0.006053819
0.03735459 -0.026639313 -0.011907288 0.019370018 0.008047246 -0.02659652 -0.045508828 -0.008631122
0.020807927 -0.045458112 0.004309261 -0.034845695 -0.004475452 0.0121492855 -0.011864336 -0.014966012
0.034730013 -0.0003628721 -0.0037978971 0.027805677 0.00092401705 0.025566233 -0.040942166 -0.019639352
-0.04379607 -0.034145143 0.0068945233 0.028842503 0.0055577816 -0.031040391 -0.020580506 -0.009934549
-0.030156976 -0.044803787 -0.006681589 0.004230095 -0.041095722 -0.019603113 -0.0034858806 -0.0021148766
-0.0125773 -0.011689052 0.02596316 0.00926164 0.0006608857 0.010048432 -0.011891821 -0.022292102
0.016901731 -0.040739458 -0.025699047 0.012425256 -0.03865531 -0.032576744 -0.045814015 -0.011797613
0.03422206 0.016773557 0.033798426 -0.002695674 0.022778925 -0.031914875 -0.032634325 -0.023339348
0.03442951 0.015923066 0.026780676 0.015933812 -0.0001351785 0.010341428 -0.031034503 0.03171189
0.027449641 -0.038724843 -0.031314403 0.028001603 0.0105534475 0.022512713 0.019548712 -0.03708311
0.01975964 -0.03248607 -0.03460781 -0.04444493 0.009215925 -0.035116114 -0.025825074 -0.04519191
0.026048541 0.025679557 0.028604046 -0.03184964 0.024120595 0.009537374 0.037029605 -0.041283257
00000000: 744a dabb bb8b 33bd bc12 793c 7c9c 3e3c
00000010: d95d d33c 6d32 2bbd 00f0 2bbd f7f8 b53c
00000020: 8062 033c 4a5f e13c 08e2 0bbd b419 ffbc
00000030: e1b5 1dbd 5509 733c 9dab 283c 6dff 7f3c
00000040: 23cd fbbc 5aed 233c 5485 f03c ff6f 0bbc
00000050: 8a63 c23b 5744 cbbc 813e 0b3d 4989 813c
00000060: 6ab5 123d 38f7 2fbd 92ae 973c 01c0 1c3c
00000070: 4197 013d 837b 7b3c 8ef6 173d 1fe9 09bd
00000080: fe28 893c 756c ed3b 41a3 3cbd 8410 973c
00000090: 2673 58bc 9907 0ebd f0b3 993c b5f9 cdbb
000000a0: 9cd5 2ebd ae1c a3bc 1071 8fb8 2427 afbc
000000b0: eacd ee3c 1b1d 24bd 73e3 1dbc 4d99 f43b
000000c0: 067c d33c 5585 01bc 9b1b eabc 5246 31bc
000000d0: 8d34 ea3c 8e29 e2bc e803 6fbb cc36 57bc
000000e0: d64d c3bc 2d2d 113c cfbf 89bc af20 2bbd
000000f0: 44bf e03c 0aa0 883c 3f5c 79bc 7a3b d7bc
00000100: 19c5 153d 3505 7cbc 2642 d03b aab8 4cbc
00000110: 1399 87bc 2318 babb 9331 063d cd95 dcbc
00000120: eba8 a43c 8199 ac3c eeb1 e1bc a5d0 a6ba
00000130: 8a5d 413c b408 03bc a9c3 ae3c 9c6b 20bb
00000140: 289b 03bd 816e 23bd 748d ee3b 8a11 1dbd
00000150: bbed 0dbd 79a5 1ebc 8bd9 16bd 0c1b aa3c
00000160: 4c09 12bd 0f54 82bc d018 ed3c 28a3 8abc
00000170: 3778 e33c 9c49 313c fc6d f5bc 1bd5 17bd
00000180: 949e f73b a43a 06ba 5609 023d 5704 113d
00000190: 9d96 21bd de21 cdbc 6b0b e53c 08d2 453c
000001a0: d0ba 053c 26e8 be3c 2979 333c 7641 65bb
000001b0: c869 f33b 5c06 9fbc 5821 803c 0b6c 17bc
000001c0: b4f9 873c 6096 eebc af4b 2dbc 8c70 f0bb
000001d0: 2132 ccb9 ea7a b83c 82a5 cf3c d20f 0b3c
000001e0: 60d5 083c a190 e43a e504 243d adad 013d
000001f0: a1aa 3ebd 56de 19bd be99 f5bc c726 7f3c
00000200: 1fd3 7b3c 4b89 b03c 87a1 8e3c e5e5 873b
00000210: 813e 9c3c 59a2 f4bc da0e 84bb 339e 1dbd
00000220: d6f0 933b 57f6 11bb e5a8 80bc c39a cbbc
00000230: d7fd 123c e649 1bbd de8e c43c 3424 e93c
00000240: bf39 923c 0260 ddbb 54c9 eabc d348 92bc
00000250: c686 5eba 5374 053d 1edf 153d 485c a73c
00000260: 36cd bfbc 9a47 54bb 2c08 f2bc bec4 e1bc
00000270: 3288 993c 3dee 4e3c aa06 b53c 1d5f c63b
00000280: 2001 193d b03a dabc c916 43bc dfad 9e3c
00000290: 99d8 033c f2e0 d9bc 7767 3abd 8d69 0dbc
000002a0: 6375 aa3c 4932 3abd b434 8d3b 5cba 0ebd
000002b0: d0a6 92bb cc0d 473c a262 42bc 0134 75bc
000002c0: 0f41 0e3d de3f beb9 24e6 78bb bbc8 e33c
000002d0: bc39 723a 4770 d13c f9b2 27bd b5e2 a0bc
000002e0: 8263 33bd c7db 0bbd 74eb e13b 1d47 ec3c
000002f0: 0d1e b63b 6b48 febc 7398 a8bc 85c4 22bc
00000300: c30b f7bc 2d84 37bd 3bf1 dabb 9c9c 8a3b
00000310: fd53 28bd b596 a0bc 5f73 64bb be99 0abb
00000320: 0511 4ebc 7083 3fbc b1b0 d43c 22be 173c
00000330: 4a3f 2d3a 2ea2 243c ead5 42bc ed9d b6bc
00000340: 8075 8a3c 6bde 26bd cf86 d2bc 4d93 4b3c
00000350: 0855 1ebd 316f 05bd 7aa7 3bbd c74a 41bc
00000360: 6e2c 0c3d b368 893c 3870 0a3d e8a9 30bb
00000370: de9a ba3c 2cb9 02bd 92ab 05bd 2932 bfbc
00000380: f505 0d3d 1771 823c 2663 db3c a087 823c
00000390: b4be 0db9 186f 293c 123c febc 54e4 013d
000003a0: 12de e03c f19d 1ebd 8843 00bd 9e63 e53c
000003b0: 5ee8 2c3c 956c b83c 9f24 a03c 76e4 17bd
000003c0: f8de a13c 1d10 05bd ebc0 0dbd e30b 36bd
000003d0: 64fe 163c ead5 0fbd 1b8f d3bc 271b 39bd
000003e0: c063 d53c ef5d d23c 0853 ea3c c574 02bd
000003f0: 8e98 c53c a542 1c3c 5bac 173d a218 29bd

conv2.bias f4 [64]
-0.025451155 -0.0040002577 -0.01823893 -0.036503598 0.007691298 -0.031047966 -0.003948237 -0.006572697
-0.005982211 0.042382114 0.02988114 0.036485195 0.0061562904 -0.032794867 0.035154264 0.025379501
0.036127936 -0.019753268 0.0037327388 0.020848501 0.03703899 0.015450113 0.011066928 -0.02491561
-0.0055465614 -0.036616378 0.028313588 -0.034767352 -0.01697157 0.013052267 0.008363747 0.016811447
-0.031948894 -0.022413991 0.037624273 -0.030375918 0.0027581356 0.012221192 -0.0041933237 -0.026927402
0.006197511 0.022498066 -0.01417724 0.024799101 0.025178242 -0.030498026 -0.030956969 0.04120475
0.011433249 -0.037104744 0.034279473 0.009619322 0.015309929 0.003730924 0.0041169273 -0.034441028
-0.02435386 -0.022528933 -0.03209218 -0.02425886 -0.036141906 0.022289706 0.01490912 -0.02321425
00000000: f17e d0bc 9814 83bb cf69 95bc cc84 15bd
00000010: 4907 fc3b 4e58 febc 3660 81bb c75f d7bb
00000020: 6c06 c4bb de98 2d3d 4bc9 f43c 8071 153d
00000030: b5ba c93b e953 06bd ebfd 0f3d ace8 cf3c
00000040: e3fa 133d 9bd1 a1bc f7a0 743b 7aca aa3c
00000050: 32b6 173d 7922 7d3c 0f52 353c d21b ccbc
00000060: eebf b5bb 0efb 15bd e6f1 e73c 3668 0ebd
00000070: f607 8bbc 2dd9 553c 1908 093c 29b8 893c
00000080: d8dc 02bd 8c9d b7bc e91b 1a3d ebd6 f8bc
00000090: d6c1 343b 653b 483c 2668 89bb db96 dcbc
000000a0: 7e14 cb3b dd4d b83c a847 68bc 7c27 cb3c
000000b0: 9a42 ce3c ffd6 f9bc 7899 fdbc 50c6 283d
000000c0: 8652 3b3c 25fb 17bd a268 0c3d 5c9a 1d3c
000000d0: 7fd6 7a3c 8582 743b 4ae7 863b 0912 0dbd
000000e0: bf81 c7bc 998e b8bc 1773 03bd 84ba c6bc
000000f0: 8909 14bd e798 b63c 6245 743c d02b bebc

conv3.weight f4 [3, 64, 3, 3]
0.024921482 0.00072127517 0.0011496933 -0.00024835372 0.021115206 -0.014891864 0.0113911135 0.043793637
-0.033425353 -0.031798735 0.0052492563 0.026480889 0.013595249 0.009786383 -0.009040032 -0.007072222
-0.03551973 -0.0053012287 0.022807255 0.011339839 -0.03735492 -0.0033585909 0.033011243 -0.027477903
-0.000102165825 0.0028775374 0.014235734 0.024788218 -0.023290504 -0.0154303145 0.013080833 -0.0040482264
0.027756575 -0.00061089545 0.029013215 0.0010404455 -0.02590876 0.041070893 0.0023428625 -0.015460033
0.007938949 -0.020774042 -0.023290738 0.020682026 -0.016579181 -0.033919644 -0.012297796 0.019994736
0.022671271 -0.012889078 0.01261051 0.026293758 0.004314708 0.030864768 0.037902147 0.009219294
-0.020031022 0.019348687 0.012300483 0.0030520305 -0.004560892 0.017675664 -0.024274351 0.024568632
0.034052942 -0.023864325 -0.037712038 -0.0019839886 0.028791022 -0.034011684 -0.0003220379 0.0066327476
-0.039076798 -0.025478201 0.00964703 0.025836244 0.027604897 -0.025207961 0.0009969088 0.030030195
0.0020381142 0.019321917 -0.020258283 -0.010193784 0.0038577204 0.027250882 0.031267367 0.037482332
-0.04126912 -0.027742933 0.017448852 0.02532198 -0.03677077 -0.035098568 -0.012164282 0.007971667
-0.030607976 0.014047775 0.031801157 -0.022603856 0.034834273 -0.014792952 0.042139977 -0.009309416
0.035005953 0.002466388 0.031525426 -0.028390847 -0.013400243 -0.005954434 -0.0008626342 0.015073883
0.036232553 0.029515972 0.010241986 0.026138553 -0.0048867604 0.010192902 -0.0003062478 -0.031978313
0.0051609743 0.011811025 -0.029581584 -0.018933121 0.018523457 0.026546692 0.025293574 -0.039254073
-0.02046379 0.00087602774 -0.033322763 0.0156522 -0.01911954 -0.041206557 0.015098851 -0.023319244
-0.01343256 -0.028132545 -0.022924762 0.03218394 0.033751104 -0.029771317 0.0030169673 -0.031990837
0.029827325 0.046130154 -0.0067263073 0.012060877 0.041331004 0.026942862 0.044453535 -0.0122481715
-0.02325693 0.028897105 0.04407364 -0.036966387 -0.007621836 0.025942318 0.010106413 0.02134744
-0.0037180036 0.028938359 0.036532693 -0.020897577 -0.001865005 0.0424263 0.027740667 -0.026375614
-0.008361836 0.006912282 0.019018611 -0.0034651482 0.033623945 -0.015420912 -0.033061564 -0.029024644
0.03378004 -0.023633689 -0.033915825 0.04364289 0.033657532 0.0013806918 0.011939146 -0.005329199
-0.00036361947 -0.031144472 0.0042840475 -0.03680729 0.042613737 0.027384432 -0.03539949 0.043897144
-0.032947376 -0.03265531 -0.032807726 0.012994385 -0.021483922 -0.016407335 0.020533115 -0.022225564
0.006060377 -0.029794395 0.028330972 0.010625799 0.009463576 -0.010849834 0.043724384 0.020452613
0.033154145 -0.028435765 -0.027144575 -0.0074421633 -0.012286391 -0.010868493 -0.0013632566 0.0015358737
-0.034089804 -0.005221486 -0.013440671 0.043276094 -0.017066626 0.009829479 -0.01071255 -0.015887873
-0.0112887975 -0.031445228 -0.020791985 -0.029762672 -0.028158704 -0.0209818 -0.03910381 -0.0142578725
0.033812948 0.006382524 0.04676439 0.0413777 0.04161227 -0.0079544345 0.007884494 -0.026677059
-0.026917355 0.016479194 0.0062861745 0.020225648 0.007646722 -0.044164535 -0.02677802 0.03882914
-0.04121154 -0.038495116 0.039368406 -0.025434107 -0.028746981 -0.018110676 -0.0029806953 0.004051603
00000000: 2328 cc3c f513 3d3a 4eb1 963a 7935 82b9
00000010: ccf9 ac3c 01fd 73bc cba1 3a3c f560 333d
00000020: 06e9 08bd 643f 02bd f401 ac3b 73ee d83c
00000030: 9bbe 5e3c 1157 203c a41c 14bc 19be e7bb
00000040: 237d 11bd eeb5 adbb 48d6 ba3c bbca 393c
00000050: 7901 19bd ce1b 5cbb cc36 073d 5719 e1bc
00000060: dc41 d6b8 1195 3c3b ff3c 693c a910 cb3c
00000070: bacb bebc 6ecf 7cbc fd50 563c fca6 84bb
00000080: c261 e33c 8024 20ba 1fad ed3c 8f5f 883a
00000090: 9c3e d4bc f439 283d b68a 193b 144c 7dbc
000000a0: 5e12 023c 532e aabc 38cc bebc 5a6d a93c
000000b0: 10d1 87bc 53ef 0abd b27c 49bc 00cc a33c
000000c0: 1ab9 b93c b62c 53bc 509c 4e3c 0266 d73c
000000d0: 6562 8d3b 1cd8 fc3c 483f 1b3d 860c 173c
000000e0: 1918 a4bc 2381 9e3c f787 493c 9304 483b
000000f0: 8973 95bb 8ecc 903c 01db c6bc 2844 c93c
00000100: 197b 0b3d 1e7f c3bc f077 1abd ce05 02bb
00000110: 26db eb3c d64f 0bbd 32d7 a8b9 8557 d93b
00000120: fe0e 20bd a9b7 d0bc 940e 1e3c 88a6 d33c
00000130: aa23 e23c ed80 cebc b5aa 823a e201 f63c
00000140: e291 053b ff48 9e3c b3f4 a5bc d403 27bc
00000150: cfd1 7c3b 3e3d df3c 3612 003d 1387 193d
00000160: cf09 29bd 2645 e3bc e5f0 8e3c 0a70 cf3c
00000170: f29c 16bd 84c3 0fbd b24c 47bc 989b 023c
00000180: 94bd fabc a428 663c ee41 023d b92b b9bc
00000190: 62ae 0e3d 235e 72bc f89a 2c3d 8586 18bc
000001a0: 6762 0f3d 20a3 213b ce20 013d ec93 e8bc
000001b0: b18c 5bbc 6a1d c3bb 6722 62ba 73f8 763c
000001c0: 9668 143d 7bcb f13c 01ce 273c 8520 d63c
000001d0: 1e21 a0bb 2100 273c e28f a0b9 b1fb 02bd
000001e0: 641d a93b 0883 413c 1455 f2bc a219 9bbc
000001f0: 81be 973c 7378 d93c 7834 cf3c e1c8 20bd
00000200: aea3 a7bc 3aa5 653a 737d 08bd 0b39 803c
00000210: 95a0 9cbc 35c8 28bd 2c61 773c 0008 bfbc
00000220: 3d14 5cbc 3976 e6bc b6cc bbbc 4fd3 033d
00000230: 993e 0a3d fae2 f3bc 50b8 453b d308 03bd
00000240: 6f58 f43c f9f2 3c3d 5b68 dcbb fc9a 453c
00000250: b34a 293d 47b7 dc3c e914 363d 8eac 48bc
00000260: 5185 bebc 9fb9 ec3c 9086 343d 116a 17bd
00000270: 98c0 f9bb fc84 d43c 5e95 253c d4e0 ae3c
00000280: c0a9 73bb 2310 ed3c 4ea3 153d 6531 abbc
00000290: 2f73 f4ba 33c7 2d3d 6540 e33c ac11 d8bc
000002a0: 1500 09bc 6d80 e23b ebcc 9b3c 8a17 63bb
000002b0: 43b9 093d fea7 7cbc 906b 07bd 17c5 edbc
000002c0: f05c 0a3d 709b c1bc 52eb 0abd e3c2 323d
000002d0: 7bdc 093d 54f8 b43a 689c 433c 90a0 aebb
000002e0: 2ea4 beb9 b122 ffbc 3261 8c3b 3ec3 16bd
000002f0: be8b 2e3d 5155 e03c 0eff 10bd 7ecd 333d
00000300: d4f3 06bd 93c1 05bd 6561 06bd 67e6 543c
00000310: 0dff afbc ad68 86bc 1035 a83c 6312 b6bc
00000320: 2196 c63b 6013 f4bc 5b16 e83c d517 2e3c
00000330: 1d0d 1b3c 81c3 31bc 5718 333d 3d8c a73c
00000340: a4cc 073d 1ff2 e8bc 4d5e debc 64dd f3bb
00000350: dc4c 49bc c311 32bc 4daf b2ba 5f4f c93a
00000360: c0a1 0bbd 0019 abbb 4336 5cbc 4642 313d
00000370: 4fcf 8bbc d30b 213c b183 2fbc 4927 82bc
00000380: a6f4 38bc b6cc 00bd f453 aabc d9d0 f3bc
00000390: 15ad e6bc 06e2 abbc 512b 20bd da99 69bc
000003a0: 727f 0a3d 7e24 d13b 048c 3f3d aa7b 293d
000003b0: a171 2a3d 5153 02bc f72d 013c d989 dabc
000003c0: c981 dcbc 60ff 863c 41fc cd3b 42b0 a53c
000003d0: 5a91 fa3b dfe5 34bd 945d dbbc 4e0b 1f3d
000003e0: 6fcd 28bd 0ead 1dbd c440 213d 305b d0bc
000003f0: ca7e ebbc d75c 94bc c557 43bb 4fc3 843b

conv3.bias f4 [3]
-0.007057858 -0.006268575 0.02194743
00000000: 9b45 e7bb 9e68 cdbb 19cb b33c

conv1.weight f4 [64, 3, 3, 3]
0.09577443 0.13438885 0.14681764 -0.032301415 -0.15389727 0.10327187 -0.026491495 -0.12509908
0.16797462 -0.027624555 0.17715134 -0.086320154 -0.13512653 0.12599598 -0.09146549 -0.14696436
0.10122486 0.17697753 0.05915433 -0.13841935 0.080119334 -0.032641392 -0.040913183 -0.069005124
-0.11235888 -0.04360824 0.10922251 0.17726158 0.09873264 0.16022608 0.17474353 0.05441438
0.10256733 0.0950605 0.08202161 -0.18155026 -0.0860008 0.033706587 0.082885966 -0.09455993
-0.061874054 -0.12581752 -0.14654869 0.168565 0.00048078492 0.13709077 -0.080991775 -0.03655124
0.050992906 0.1806999 0.0101814745 0.08296005 0.044342164 -0.12097445 -0.18772826 0.05247419
0.06307133 0.037094202 0.18610474 -0.014077354 -0.13399416 -0.025333945 -0.18080527 0.030637244
-0.092546456 -0.008180127 -0.05415577 0.015374985 -0.028451689 -0.14511965 0.07610547 -0.048189927
-0.07169459 -0.0011338887 0.046765786 -0.027215086 -0.15961514 0.027246872 0.18629168 -0.058444828
0.03195595 -0.037003975 0.11250392 0.06898064 0.015731826 0.112824455 -0.15492044 -0.031262785
-0.025890885 0.08492685 -0.033469602 -0.09010992 0.00084953936 -0.04266795 0.18869871 -0.0520332
-0.1586975 -0.10757196 -0.064703174 0.14519198 0.15641102 -0.13722596 0.07931858 -0.16991967
-0.088733435 -0.11310425 0.16344912 0.18476936 -0.011800202 0.083530165 0.1344577 -0.10595042
0.18143478 -0.032323558 -0.1178688 0.16154064 0.013402025 0.17006649 -0.047903292 -0.1011037
0.08351156 -0.12510608 -0.15358417 -0.030340679 0.19580293 -0.14623491 -0.061683137 -0.0040980154
-0.10814747 0.16067147 -0.13724327 0.0876079 0.12242501 0.04544528 -0.10633261 -0.18068683
-0.08652495 0.0062447963 0.14212172 0.12781551 -0.10362145 0.02745044 -0.037780747 -0.10925806
0.098422274 0.06719493 0.10214237 -0.05930964 0.14402014 0.04772903 0.1268016 -0.03315679
0.1477842 0.021063775 0.048750125 0.007458343 -0.07417683 -0.0609357 -0.13695912 0.13405485
0.08914992 0.047942862 -0.1372271 0.060875125 0.03363238 0.0063602813 0.15221387 0.01055162
-0.14258811 -0.059273962 0.032166254 -0.01798803 0.03322233 0.16298695 0.11747051 -0.06996721
-0.022863537 -0.186023 -0.0011222642 -0.11634138 -0.09803266 0.11477625 -0.106192015 -0.15668643
-0.1283314 0.09821032 0.1685012 0.18774189 0.123075746 0.091941185 -0.1740994 -0.024618473
0.046702456 0.1536053 -0.1475787 0.0075901463 -0.09718068 0.04720584 0.19150154 -0.010218835
-0.06559495 0.07909507 -0.012831972 0.05671519 -0.034074716 0.1793636 -0.03365432 0.052673813
0.06114155 0.08991085 0.15382618 0.1824428 0.06976936 0.06031264 0.17922364 0.1526347
-0.15047868 0.0043011447 -0.14250468 -0.16473204 -0.078284144 -0.1869955 -0.048028477 -0.16857617
-0.12551995 -0.13922612 -0.05517494 0.049677942 0.009103769 0.083327286 -0.09365075 -0.04410063
0.14083749 -0.015674375 -0.16840813 0.00065798307 0.07154208 0.18269436 0.01623354 -0.18110472
-0.14530437 -0.17591825 -0.116664104 0.10911679 -0.15714197 0.05309371 -0.094303064 0.07403633
0.11418363 -0.022441216 0.0012267731 -0.10143237 0.13007142 0.08263196 0.09610409 0.07787748
00000000: 6225 c43d 3b9d 093e 5d57 163e 7d4e 04bd
00000010: 3f97 1dbe 3480 d33d b104 d9bc f919 00be
00000020: 8a01 2c3e e44c e2bc 2967 353e 9fc8 b0bd
00000030: 9c5e 0abe 1705 013e 4252 bbbd d37d 16be
00000040: fb4e cf3d 9939 353e d04b 723d cdbd 0dbe
00000050: 9b15 a43d fbb2 05bd 9594 27bd 8f52 8dbd
00000060: 6a1c e6bd 8e9e 32bd 0db0 df3d 0f84 353e
00000070: 5734 ca3d 4e12 243e f8ef 323e 9de1 5e3d
00000080: d20e d23d 14af c23d f2fa a73d 50e8 39be
00000090: 3021 b0bd eb0f 0a3d 1ec0 a93d a3a8 c1bd
000000a0: a66f 7dbd 4fd6 00be dc10 16be 4e9c 2c3e
000000b0: dc11 fc39 8661 0c3e 04df a5bd c1b6 15bd
000000c0: f0dd 503d 6509 393e 33d0 263c f5e6 a93d
000000d0: 21a0 353d 74c1 f7bd d63b 40be 2def 563d
000000e0: 8b2b 813d 17f0 173d 3e92 3e3e b4a4 66bc
000000f0: c435 09be 2289 cfbc 0425 39be f5fa fa3c
00000100: ff88 bdbd f005 06bc 71d2 5dbd 5ce7 7b3c
00000110: 8413 e9bc 3f9a 14be 2fdd 9b3d cd62 45bd
00000120: 9dd4 92bd fe9e 94ba 7b8d 3f3d 2cf2 debc
00000130: 2772 23be d534 df3c 3fc3 3e3e d863 6fbd
00000140: 3ee4 023d 7b91 17bd 7568 e63d b945 8d3d
00000150: 08e0 803c 8210 e73d 77a3 1ebe 680d 00bd
00000160: 1f19 d4bc 21ee ad3d 6c17 09bd 8d8b b8bd
00000170: 9fb3 5e3a 97c4 2ebd 3c3a 413e c420 55bd
00000180: 9981 22be b04e dcbd 1983 84bd 35ad 143e
00000190: 362a 203e f684 0cbe c871 a23d 6cff 2dbe
000001a0: e0b9 b5bd 33a3 e7bd 355f 273e 2e34 3d3e
000001b0: a255 41bc dd11 ab3d 48af 093e 89fc d8bd
000001c0: 0aca 393e b565 04bd 3365 f1bd e96a 253e
000001d0: 2b94 5b3c e925 2e3e 3e36 44bd 750f cfbd
000001e0: 1c08 ab3d cf1b 00be 2b45 1dbe 048d f8bc
000001f0: 9080 483e 9bbe 15be 75a7 7cbd a548 86bb
00000200: 6c7c ddbd 1087 243e 8089 0cbe c56b b33d
00000210: f7b9 fa3d d424 3a3d e9c4 d9bd f805 39be
00000220: fe33 b1bd 26a1 cc3b 5b88 113e 12e2 023e
00000230: 7c37 d4bd bfdf e03c fcbf 1abd b1c2 dfbd
00000240: 9e91 c93d 7f9d 893d 0530 d13d aaee 72bd
00000250: 047a 133e 847f 433d 47d8 013e 6acf 07bd
00000260: be54 173e f08d ac3c 36ae 473d 1e65 f43b
00000270: 06ea 97bd b697 79bd 033f 0cbe ad45 093e
00000280: 3c94 b63d bc5f 443d 4385 0cbe 3258 793d
00000290: 1bc2 093d e869 d03b f4dd 1b3e b4e0 2c3c
000002a0: 9e02 12be 41c9 72bd c3c0 033d a25b 93bc
000002b0: 2314 083d 0de6 263e 6194 f03d f84a 8fbd
000002c0: 504c bbbc d07c 3ebe f018 93ba 6444 eebd
000002d0: 59c5 c8bd d00f eb3d 337b d9bd 6872 20be
000002e0: 4e69 03be 7e22 c93d 948b 2c3e 693f 403e
000002f0: 230f fc3d a94b bc3d 1d47 32be aeac c9bc
00000300: 134b 3f3d b54a 1d3e df1e 17be c3b6 f83b
00000310: aa06 c7bd e95a 413d fb18 443e e76c 27bc
00000320: a556 86bd 99fc a13d 313d 52bc 304e 683d
00000330: ee91 0bbd 17ab 373e 1dd9 09bd 7fc0 573d
00000340: 906f 7a3d 2e23 b83d 9c84 1d3e 49d2 3a3e
00000350: 3de3 8e3d 630a 773d 6786 373e 454c 1c3e
00000360: 1517 1abe 9ef0 8c3b bfec 11be 84af 28be
00000370: 7053 a0bd c07b 3fbe 82b9 44bd 3b9f 2cbe
00000380: 4d88 00be 4b91 0ebe 1eff 61bd 197b 4b3d
00000390: fa27 153c 7fa7 aa3d f7cb bfbd dda2 34bd
000003a0: b437 103e 8c67 80bc 2e73 2cbe 7f7c 2c3a
000003b0: a784 923d 3b14 3b3e 33fc 843c 8473 39be
000003c0: abca 14be ea23 34be 97ed eebd a078 df3d
000003d0: d3e9 20be ca78 593d f721 c1bd 5ca0 973d
000003e0: 1bd9 e93d a4d6 b7bc adcb a03a c6bb cfbd
000003f0: 7131 053e f23a a93d 39d2 c43d 3a7e 9f3d

conv1.bias f4 [64]
0.045495942 0.16754054 -0.14818761 -0.036183383 0.077939756 -0.070445955 0.16536434 -0.052793484
-0.056445293 -0.14243543 -0.18143122 -0.055283405 -0.098283775 -0.15926154 0.068497084 0.13184674
0.049098212 -0.016214801 -0.121389665 -0.08886379 -0.1323933 -0.0068800836 -0.004389973 0.0041482653
-0.08114554 -0.0657056 -0.12454074 -0.12230255 0.09724751 -0.008081549 -0.042310465 0.15881996
-0.15469602 0.0090082325 -0.15381257 0.17501065 -0.13896252 0.15874594 0.1560807 0.011874533
-0.15487367 0.0050274795 0.13894852 0.10596767 -0.15625715 0.05917815 -0.13995211 -0.10047802
0.012699116 -0.109356515 0.057711877 -0.084198125 0.0155486725 -0.0071364795 -0.075481735 -0.0788639
0.09101973 -0.052415103 0.06694494 0.08834129 0.1550777 0.042454645 -0.1354402 -0.1729311
00000000: f459 3a3d bf8f 2b3e 7ebe 17be 0735 14bd
00000010: e19e 9f3d f845 90bd 4555 293e fb3d 58bd
00000020: 2e33 67bd 98da 11be 1bc9 39be da70 62bd
00000030: 0149 c9bd 7515 23be 3348 8c3d d502 073e
00000040: 351b 493d e7d4 84bc 259b f8bd 38fe b5bd
00000050: 1c92 07be 5372 e1bb c3d9 8fbb 2cee 873b
00000060: a22f a6bd a890 86bd 370f ffbd c279 fabd
00000070: b429 c73d 7968 04bc bd4d 2dbd b3a1 223e
00000080: a268 1ebe 4497 133c 0b81 1dbe fe35 333e
00000090: 314c 0ebe 4c8e 223e 9ed3 1f3e 678d 423c
000000a0: 3497 1ebe 8ebd a43b 8548 0e3e 9405 d93d
000000b0: e001 20be ca64 723d 9b4f 0fbe 6cc7 cdbd
000000c0: f40f 503c 4ff6 dfbd 4a63 6c3d 1170 acbd
000000d0: dcbf 7e3c 21d9 e9bb 2b96 9abd 6583 a1bd
000000e0: 8d68 ba3d 38b1 56bd 6e1a 893d 47ec b43d
000000f0: b0cc 1e3e ece4 2d3d d6b0 0abe da14 31be

conv2.weight f4 [64, 64, 3, 3]
0.03351481 0.008400678 0.04463012 0.012514701 -0.029846927 0.028407225 -0.0023235122 0.037141312
-0.033727746 0.039183795 -0.012022054 0.016950896 0.030860826 0.026184669 0.016889995 0.022772068
-0.0049052862 -0.021309512 -0.036182765 0.03509249 0.007829662 -0.046856456 -0.018129343 0.004934313
-0.024507713 -0.034412306 0.029437797 0.0031497737 0.033063583 0.045863815 -0.010955424 -0.00013551384
-0.015597232 0.037328217 -0.013680075 0.03583247 -0.012095676 -0.017748939 -0.030407459 0.010527965
-0.011155751 -0.03136366 0.010764586 0.013992055 0.03367008 0.040804666 0.026524033 -0.019518897
-0.014666894 -0.0060345046 -0.013276968 0.04351663 0.023707135 0.032634553 0.039856076 0.009205316
0.038803883 -0.0089998655 -0.017069288 -0.0070830835 0.036441464 0.011620709 0.029352523 0.030621836
-0.0297552 0.039288085 -0.03258445 0.002648722 0.046567727 0.028885622 0.029502433 -0.0036629508
0.011809449 0.0045332825 0.015357153 0.0258734 0.03238796 -0.008637752 -0.03306471 0.020727932
0.011680129 0.007705127 -0.0052528623 -0.0036657155 0.02014413 -0.012000855 0.029771822 -0.0125209065
-0.0076171528 -0.038813982 0.0046145073 0.011811912 0.037209984 -0.008424355 0.0064266166 -0.01451561
-0.02448127 0.018561667 0.025162097 -0.014894594 -0.03943864 0.003833984 0.016028102 0.021293031
0.0061587887 0.0043822858 -0.032593437 0.010089366 -0.010939804 0.01775859 0.016147103 -0.019358542
0.0068112607 0.005060085 -0.032036137 0.024118342 0.030268643 0.031000596 -0.008656852 0.0166391
-0.009299846 0.013812371 -0.0058852695 0.014932952 -0.02093761 -0.005231868 0.012505037 0.0056712506
-0.03991801 -0.039542515 -0.008885535 -0.03499608 0.020989973 -0.01084068 -0.02418799 -0.035737094
-0.028597284 0.00069439557 0.033324257 -0.007769715 0.0043906225 -0.016861394 0.0022015036 -0.012288868
0.008932181 0.037148595 0.033490095 0.038696982 -0.01923203 0.034352437 0.029258566 -0.015755827
0.03197688 -0.018979415 -0.0017425382 0.027022602 -0.029652309 -0.018331368 -0.045751538 0.009875801
0.0035208412 0.023405666 -0.025399012 0.012382578 -0.04237967 0.03268564 -0.021586718 -0.002268038
0.027810512 0.015053032 0.025643814 -0.0143329315 0.005533211 0.024862112 -0.015657287 -0.031234976
0.0131732235 -0.014512974 0.024335872 0.017196277 -0.02153686 0.019670218 -0.016582923 0.0129060205
0.0006713739 0.0027188808 0.014238182 0.018077584 -0.009596798 0.044712443 0.0261409 -0.0077383197
-0.021825284 0.030088618 0.0042467494 0.036434148 0.00016950542 -0.016777249 -0.032537013 0.0038225758
-0.028631188 0.029522657 0.033831738 0.0018150182 -0.017681038 0.011835279 -0.027862784 0.00718561
0.02193669 -0.032238938 -0.039331242 0.023725081 -0.00015478855 -0.039744403 -0.002494013 0.020247078
0.015125622 -0.0056866305 0.024780635 0.029551957 -0.030040376 -0.014450287 0.027317043 0.03483576
-0.010103522 -0.03862846 0.032347865 0.0075318664 -0.0413089 -0.0317255 0.00017660076 0.012181086
-0.046128824 0.0153944865 -0.03870009 -0.041152798 -0.0008411142 -0.042508457 0.01279017 -0.040801752
0.017162291 -0.031552047 0.030274663 -0.032801457 -0.0357882 0.004799011 0.046570245 -0.0074405116
0.030207794 -0.008005019 -0.020699998 -0.031707 -0.0028173293 -0.016639234 0.013384662 0.013823267
00000000: d346 093d ffa2 093c 13ce 363d 760a 4d3c
00000010: 8b81 f4bc 45b6 e83c 1146 18bb 7d21 183d
00000020: 1b26 0abd 307f 203d 26f8 44bc 9bdc 8a3c
00000030: d8cf fc3c 3b81 d63c e35c 8a3c 7d8c ba3c
00000040: 86bc a0bb 4991 aebc 6134 14bd 25bd 0f3d
00000050: fc47 003c 8eec 3fbd fd83 94bc 04b0 a13b
00000060: 66c4 c8bc ebf3 0cbd 8927 f13c 6f6c 4e3b
00000070: ae6d 073d b2db 3b3d 617e 33bc b818 0eb9
00000080: 888b 7fbc 79e5 183d 6522 60bc 11c5 123d
00000090: f12c 46bc 3966 91bc 1019 f9bc 7c7d 2c3c
000000a0: 9cc6 36bc 2e77 00bd f25d 303c ef3e 653c
000000b0: a3e9 093d cb22 273d ee48 d93c 18e6 9fbc
000000c0: 6a4d 70bc 18bd c5bb a487 59bc 7e3e 323d
000000d0: 7735 c23c cfab 053d 2040 233d e5d1 163c
000000e0: d2f0 1e3d 2c74 13bc e4d4 8bbc 3619 e8bb
000000f0: a543 153d c964 3e3c b474 f03c a5da fa3c
00000100: 2dc1 f3bc 8bec 203d 4677 05bd 2e96 2d3b
00000110: cdbd 3e3d 8aa1 ec3c 16af f13c 1e0e 70bb
00000120: 6b7c 413c ee8b 943b 919c 7b3c 74f4 d33c
00000130: 3da9 043d 5c85 0dbc dd6e 07bd a0cd a93c
00000140: 035e 3f3c 4a7b fc3b 3420 acbb 803c 70bb
00000150: 4d05 a53c 3c9f 44bc 09e4 f33c 7d24 4dbc
00000160: 4f99 f9bb 69fb 1ebd 4b35 973b c086 413c
00000170: 7f69 183d 4e06 0abc 5e96 d23b e2d2 6dbc
00000180: f28c c8bc a30e 983c be20 ce3c 7508 74bc
00000190: 698a 21bd 9443 7b3b 5e4d 833c b96e ae3c
000001a0: aacf c93b 4799 8f3b b280 05bd de4d 253c
000001b0: dd3c 33bc 767a 913c ee46 843c ce95 9ebc
000001c0: ff30 df3b 12cf a53b 5338 03bd d493 c53c
000001d0: f2f5 f73c f6f4 fd3c 78d5 0dbc b94e 883c
000001e0: 625e 18bc 484d 623c 38d9 c0bb 57a9 743c
000001f0: 5a85 abbc 1770 abbb ede1 4c3c e6d5 b93b
00000200: 1181 23bd 55f7 21bd a394 11bc 0d58 0fbd
00000210: 2af3 ab3c 1c9d 31bc e425 c6bc 0f61 12bd
00000220: da44 eabc 1908 363a 047f 083d 1899 febb
00000230: 36df 8f3b e820 8abc 1a47 103b 4057 49bc
00000240: 4858 123c 2029 183d e92c 093d ba80 1e3d
00000250: 7d8c 9dbc 24b5 0c3d a9af ef3c 5d12 81bc
00000260: 30fa 023d b87a 9bbc e165 e4ba 815e dd3c
00000270: 66e9 f2bc aa2b 96bc f765 3bbd 1dce 213c
00000280: eabd 663b 3dbd bf3c 9711 d0bc 4ce0 4a3c
00000290: 4e96 2dbd 61e1 053d a1d6 b0bc 5da3 14bb
000002a0: dfd2 e33c fea0 763c fa12 d23c acd4 6abc
000002b0: f04f b53b a1ab cb3c b643 80bc 7ee0 ffbc
000002c0: 81d4 573c d3c7 6dbc 065c c73c 35df 8c3c
000002d0: 126e b0bc 7023 a13c e9d8 87bc c673 533c
000002e0: 24ff 2f3a 402f 323b 4447 693c 7117 943c
000002f0: e33b 1dbc 6524 373d 7125 d63c bb91 fdbb
00000300: f0ca b2bc 687c f63c 5128 8b3b f93b 153d
00000310: 44bd 3139 7170 89bc 8845 05bd 2e84 7a3b
00000320: f48b eabc 80d9 f13c 2693 0a3d e8e5 ed3a
00000330: d3d7 90bc c2e8 413c 7e40 e4bc 4475 eb3b
00000340: 93b4 b33c fa0c 04bd cc19 21bd 1a5b c23c
00000350: bc4e 22b9 07cb 22bd 9872 23bb 33dd a53c
00000360: 75d1 773c ea56 babb c200 cb3c f216 f23c
00000370: 3c17 f6bc e6c0 6cbc fec7 df3c f1af 0e3d
00000380: 3e89 25bc e038 1ebd 327f 043d e0cd f63b
00000390: 8533 29bd 99f2 01bd e82d 3939 2d93 473c
000003a0: 94f1 3cbd 2839 7c3c fc83 1ebd d68f 28bd
000003b0: 387e 5cba 591d 2ebd dc8d 513c bd1f 27bd
000003c0: ef97 8c3c b83c 01bd 9202 f83c d25a 06bd
000003d0: a696 12bd 0641 9d3b 71c0 3e3d 89cf f3bb
000003e0: 5676 f73c 7c27 03bc 0b93 a9bc 33df 01bd
000003f0: f1a2 38bb 014f 88bc 574b 5b3c fc7a 623c

conv2.bias f4 [64]
0.043154493 -0.004882072 0.0041954564 -0.021933287 0.03886439 0.025936175 0.0028931848 0.0041354625
0.030740635 -0.017814511 0.0130368415 -0.008870597 -0.014372051 0.008263482 -0.04188776 -0.0366135
-0.027558569 0.012886873 0.042814557 -0.016033603 -0.022137748 0.00091242173 0.025492664 0.020559387
-0.002012488 0.036831073 -0.012978757 0.022930074 0.012879679 0.001875707 0.0018834018 0.00608542
-0.009640857 0.014314032 -0.013853277 0.0021480322 0.022232484 0.027741518 0.032131672 0.018202556
-0.012090218 0.028859122 0.027181106 -0.006280758 -0.024094075 -0.034814723 0.012290796 0.033796594
0.014325815 -0.03652405 0.024979793 0.035428043 -0.021257466 0.02706947 0.01065835 0.010228025
-0.0033880044 -0.03439213 0.0046610176 -0.025767028 0.030253887 -0.031111948 -0.020833006 0.03431102
00000000: c4c2 303d caf9 9fbb 0a7a 893b 70ad b3bc
00000010: 4430 1f3d 1a78 d43c 969b 3d3b c682 873b
00000020: c9d3 fb3c bdef 91bc 7a98 553c fb55 11bc
00000030: c078 6bbc 8e63 073c 8092 2bbd 0af8 15bd
00000040: 82c2 e1bc 7723 533c 515e 2f3d e758 83bc
00000050: 395a b5bc 962f 6f3a fed5 d03c 296c a83c
00000060: f2e3 03bb 2edc 163d daa4 54bc dad7 bb3c
00000070: 4a05 533c 48da f53a 7adc f63a 3468 c73b
00000080: aff4 1dbc 6785 6a3c dbf8 62bc 00c6 0c3b
00000090: e620 b63c 2e42 e33c 809c 033d 871d 953c
000000a0: 0d16 46bc f769 ec3c e9aa de3c d1ce cdbb
000000b0: f060 c5bc e299 0ebd 565f 493c 4c6e 0a3d
000000c0: d3b6 6a3c 3e9a 15bd 6ca2 cc3c ff1c 113d
000000d0: 2324 aebc cbc0 dd3c 5ca0 2e3c 7293 273c
000000e0: 4809 5ebb c3de 0cbd 73bb 983b 6015 d3bc
000000f0: 00d7 f73c 7cde febc fba9 aabc b689 0c3d

conv3.weight f4 [3, 64, 3, 3]
-0.0005078961 -0.014900291 0.030665398 -0.016734637 0.013505115 0.04529484 0.013584966 0.03112025
0.02114748 0.0116157755 -0.03487654 -0.031243445 0.018773368 -0.03277816 -0.038356997 -0.015866274
0.042016607 -0.03336417 -0.031933628 -0.006679938 -0.035809685 0.024930963 -0.028842987 -0.00569964
0.011875826 0.019264687 0.006529522 0.037644796 0.01053533 0.03761686 0.015820613 -0.00065332156
-0.038759153 -0.0074412823 -0.03786598 -0.03331481 0.008676709 0.034227766 0.0118956035 0.037454884
-0.032470535 -0.025059601 0.0031582448 0.035588227 0.0028602884 0.023772875 -0.021633957 -0.008611812
0.035215367 0.004290985 0.015704963 -0.03249605 -0.03375544 -0.01825118 0.014923174 0.0076843314
0.01515212 -0.030541925 0.0038531732 0.04159075 -0.0046229763 -0.0036266851 0.04027657 0.02647591
0.0030779822 -0.015103511 -0.023409473 0.03553371 0.010168501 -0.01733922 0.044775516 0.0101458505
-0.03572878 0.013497012 -0.033340137 -0.029302867 -0.007795059 -0.025159389 -0.033438187 0.020578265
-0.014488185 -0.018530542 -0.004532034 -0.026601983 0.013801557 -0.025602277 0.02362374 0.020439787
-0.019678988 -0.020111263 -0.03671311 -0.036217928 0.0001804723 -0.013400425 -0.0021225966 -0.0016681883
-0.006190208 0.025316805 0.010952823 0.016488533 0.01347042 -0.026920106 -0.04085517 -0.04200654
0.0044759028 -0.040646005 -0.0015503073 -0.01046592 0.014498972 -0.0066319276 0.027721051 0.00982374
0.02081471 0.010261578 0.02609634 0.026582588 -0.0067314543 0.009321238 -0.020353677 0.009570033
0.0073582567 0.0052642794 0.044724014 0.037323967 0.0051449784 -0.024035258 0.022441657 0.032621715
-0.026122846 -0.010674181 -0.024040326 0.014555562 -0.01277072 0.031454545 -0.013524452 0.032546666
0.024938772 -0.037113853 0.025328625 0.00897782 -0.025341645 -0.022775032 0.0003173841 -0.00058411236
0.024179688 -0.0029957115 0.027575448 -0.032837328 0.0025384834 -0.03597858 0.005901782 0.03810313
0.0015774278 -0.01496065 0.03255101 0.03402333 -0.01670524 0.027959289 -0.003702349 0.012210832
0.043381304 0.03827981 -0.024578594 -0.004004473 0.02369784 -0.005510704 0.04134766 0.009946784
-0.007630679 0.025306962 0.030222295 0.027367873 -0.046366166 -0.04556534 -0.021727862 -0.019451153
-0.034743126 0.014710428 -0.00085076306 0.0061719194 -0.0077546346 -0.014206915 0.039528117 0.00096133305
0.020488469 -0.018311678 -0.021965796 0.005318687 0.0147298 -0.00024692697 0.041751657 0.035714895
0.029545367 -0.017653706 0.025741152 0.013203323 -0.022529934 -0.029562991 -0.016907118 -0.028364584
0.007337455 0.01840808 -0.003944944 0.0048844893 0.033266205 -0.013009647 -0.017042201 -0.0051090526
-0.02773333 0.040426224 -0.013935932 0.026646765 0.030798336 -0.025957035 0.032840386 0.017456552
0.005216635 0.03931639 0.034735534 0.020455746 -0.027938746 0.006538014 -0.00517967 0.013719772
-0.0027291747 7.361952e-06 0.038460504 0.0023076017 0.010148345 -0.03147319 0.020248724 0.010984712
0.018338718 0.03596806 0.00094659656 -0.030347785 0.039869964 0.005130934 0.00028903974 -0.03843255
0.02854848 -0.036241155 0.015426249 -0.030097807 0.04481283 0.041318417 0.0391669 0.030268172
0.004902999 0.030244268 0.028707847 0.017078903 0.010948306 0.028263358 0.02991147 0.041888915
00000000: 5524 05ba 5a20 74bc 0036 fb3c 1417 89bc
00000010: 8f44 5d3c 1587 393d 7a93 5e3c e5ef fe3c
00000020: 7b3d ad3c 1850 3e3c b4da 0ebd 41f2 ffbc
00000030: 9bca 993c 6442 06bd 3a1c 1dbd fdf9 81bc
00000040: 9b19 2c3d dea8 08bd d6cc 02bd 62e3 dabb
00000050: 2dad 12bd 053c cc3c 2148 ecbc 0cc4 babb
00000060: d392 423c fad0 9d3c 9af5 d53b 6e31 1a3d
00000070: 609c 2c3c 2314 1a3d 3b9a 813c ab43 2bba
00000080: ebc1 1ebd 00d6 f3bb 5c19 1bbd 1c75 08bd
00000090: c128 0e3c 6a32 0c3d c7e5 423c 4b6a 193d
000000a0: d3ff 04bd cb49 cdbc 8efa 4e3b f6c4 113d
000000b0: ad73 3b3b 55bf c23c b239 b1bc 8f18 0dbc
000000c0: fd3d 103d 649b 8c3b b2a7 803c 941a 05bd
000000d0: 2543 0abd 8083 95bc 5480 743c d8cc fb3b
000000e0: 9940 783c 0f33 fabc 8585 7c3b 105b 2a3d
000000f0: 567c 97bb aead 6dbb 0bf9 243d 02e4 d83c
00000100: f9b7 493b b774 77bc 39c5 bfbc cc8b 113d
00000110: c999 263c fb0a 8ebc 8866 373d c83a 263c
00000120: 5758 12bd 9222 5d3c ab8f 08bd 910c f0bc
00000130: b26d ffbb 101b cebc 7bf6 08bd c093 a83c
00000140: da5f 6dbc 5dcd 97bc 7581 94bb 67ec d9bc
00000150: ed1f 623c debb d1bc 9386 c13c 5771 a73c
00000160: d435 a1bc 60c0 a4bc 7c60 16bd 4059 14bd
00000170: 2a3d 3d39 758d 5bbc 431b 0bbb 1ca7 daba
00000180: 3ad7 cabb 3065 cf3c 7873 333c f612 873c
00000190: 09b3 5c3c 8e87 dcbc c057 27bd 0d0f 2cbd
000001a0: 98aa 923b 6d7c 26bd ae33 cbba 4079 2bbc
000001b0: 198d 6d3c a450 d9bb 4217 e33c c1f3 203c
000001c0: 9c83 aa3c 2d20 283c fec7 d53c bac3 d93c
000001d0: 8893 dcbb 1bb8 183c c1bc a6bc a1cb 1c3c
000001e0: 881d f13b fa7f ac3b 8730 373d 04e1 183d
000001f0: 3597 a83b 97e5 c4bc 91d7 b73c 599e 053d
00000200: 94ff d5bc c3e2 2ebc 38f0 c4bc 747a 6e3c
00000210: 483c 51bc 7bd6 003d aa95 5dbc a74f 053d
00000220: 654c cc3c b204 18bd fa7d cf3c b517 133c
00000230: 4899 cfbc b492 babc 9366 a639 1e1f 19ba
00000240: 7b14 c63c b353 44bb e8e5 e13c 6f80 06bd
00000250: af5c 263b 475e 13bd bc63 c13b 0712 1c3d
00000260: b2c1 ce3a 841d 75bc 3554 053d 0c5c 0b3d
00000270: 6dd9 88bc e10a e53c 1ca3 72bb f10f 483c
00000280: 98b0 313d 4acb 1c3d 0c59 c9bc f437 83bb
00000290: f921 c23c 2393 b4bb 2a5c 293d d6f7 223c
000002a0: c60a fabb 8c50 cf3c bf94 f73c 9732 e03c
000002b0: 73ea 3dbd b9a2 3abd a1fe b1bc 0658 9fbc
000002c0: cf4e 0ebd 0204 713c be05 5fba d03d ca3b
000002d0: 971a febb 1fc4 68bc 3ce8 213d f801 7c3a
000002e0: 6fd7 a73c 5f02 96bc 9df1 b3bc 6148 ae3b
000002f0: 4255 713c fa75 81b9 c903 2b3d c849 123d
00000300: 2009 f23c 819e 90bc 1cdf d23c c052 583c
00000310: b290 b8bc 162e f2bc cc80 8abc d85c e8bc
00000320: 096f f03b 8bcc 963c 9744 81bb 110e a03b
00000330: 2542 083d 6a26 55bc 169c 8bbc d769 a7bb
00000340: 0231 e3bc f895 253d 8953 64bc 514a da3c
00000350: cb4c fc3c d9a3 d4bc a483 063d 0b01 8f3c
00000360: 4ef0 aa3b 390a 213d d946 0e3d cf92 a73c
00000370: ccdf e4bc d63c d63b 39ba a9bb e5c8 603c
00000380: f4db 32bb b006 f736 c388 1d3d 223b 173b
00000390: 3e45 263c 08ea 00bd a7e0 a53c 39f9 333c
000003a0: 143b 963c 3f53 133d 0525 783a eb9b f8bc
000003b0: b04e 233d 6521 a83b 428a 9739 736b 1dbd
000003c0: 80de e93c 9b71 14bd 61be 7c3c ad8f f6bc
000003d0: a88d 373d 803d 293d 796d 203d f5f4 f73c
000003e0: 56a9 a03b d4c2 f73c b82c eb3c 0ee9 8b3c
000003f0: 8660 333c 8f88 e73c e608 f53c b693 2b3d

conv3.bias f4 [3]
0.011227601 -0.007779607 -0.012927058
00000000: f9f3 373c 13ec febb 03cc 53bc
